legged_gym/ckpt/elspider_air/plane_walk_300.pt (torch, 481818 bytes, 48 tensors)

std f4 [18]
0	0x3f3f0ce6	0.74629056
1	0x3f583246	0.8445171
2	0x3fc50836	1.5393131
3	0x3f471b5e	0.77776134
4	0x3f582c17	0.84442276
5	0x3fb0b176	1.3804157
6	0x3f27dda0	0.6557255
7	0x3f4f59d2	0.8099643
8	0x3f96afa3	1.177235
9	0x3f38e0de	0.7221812
10	0x3f37a96d	0.717429
11	0x3f8d33cc	1.1031432
12	0x3f336e41	0.7009011
13	0x3f4da6ae	0.8033246
14	0x3faf626d	1.3701912
15	0x3f2afe21	0.6679402
16	0x3f768442	0.9629556
17	0x3fb95107	1.4477853

actor.0.weight f4 [128, 66]
0	0xbe8047ed	-0.25054875
1	0xbf06ce56	-0.52658594
2	0xbcabccfa	-0.020971764
3	0x3efaa3c7	0.48953077
4	0xbfb89fc1	-1.4423753
5	0x3e74fd31	0.2392471
6	0xbf6605a8	-0.8985238
7	0xbf05cb52	-0.5226337
8	0x3edfb265	0.43690792
9	0x3ea5aca7	0.32358286
10	0x3f26e569	0.651938
11	0xbfb2f7db	-1.398189
12	0xbf6cdf58	-0.92528296
13	0x3bc70a4f	0.006074227
14	0xbe861d0f	-0.26194045
15	0xbed1b186	-0.40955752
16	0xbf0a4303	-0.540085
17	0xbebc48ca	-0.36774284
18	0xbf6deb03	-0.92936724
19	0x3de20eae	0.11037956
20	0xbe32e086	-0.17468461
21	0x3e8e466d	0.27788106
22	0xbf010ee6	-0.5041336
23	0xbe797e8c	-0.2436468
24	0xbe316125	-0.17322214
25	0xbe112e6a	-0.14177862
26	0xbe94aebe	-0.29039568
27	0x3f156d38	0.5836978
28	0xbea40766	-0.32036895
29	0x3f292455	0.66071063
30	0x3e059cc9	0.1304809
31	0x3e7ef4aa	0.2489802
32	0x3e105830	0.14096141
33	0xbe6c1120	-0.23053408
34	0xbeec5e25	-0.46165577
35	0xbe118eae	-0.14214584
36	0xbe8e5ad3	-0.27803668
37	0xbd6ddd62	-0.058072455
38	0x3d0f44aa	0.034977593
39	0x3e331acb	0.1749069
40	0x3dd79db6	0.10528128
41	0xbe152657	-0.14565407
42	0xbe70a3ec	-0.23500031
43	0x3cd30193	0.025757587
44	0xbd515511	-0.051106516
45	0xbd91aaaa	-0.0711263
46	0x3d8dbd48	0.06920868
47	0xbe13631b	-0.14393274
48	0xbe4d8f77	-0.20074259
49	0x3e3f26f5	0.18667205
50	0xbcddbbed	-0.027067149
51	0x3d8ec071	0.06970299
52	0x3de034da	0.10947581
53	0x3d51ea92	0.051249094
54	0xbd425052	-0.04743988
55	0xbde9d95a	-0.1141841
56	0x3ca1a30b	0.019731065
57	0x3e320a5b	0.17386763
58	0xbc27b48a	-0.010235915
59	0x3e274968	0.16336596
60	0xbdf9a56c	-0.12189755
61	0x3e0ccf93	0.13751058
62	0x3d9b0e36	0.0757107
63	0x3dbba654	0.09162584
64	0xbd3db541	-0.046315435
65	0x3c7aedbf	0.015315472
66	0x3eb86c3f	0.36020085
67	0x3ecd0628	0.4004376
68	0x3ff8a024	1.9423871
69	0x3ecfd3cf	0.40591285
70	0x3d78a8d7	0.060707893
71	0x3f68d410	0.9094858
72	0xbd027f43	-0.031859647
73	0xbe3061d4	-0.17224818
74	0xbe82072c	-0.25396097
75	0xbeee50bf	-0.4654598
76	0xbef908cb	-0.4863952
77	0xbe9bd847	-0.30438444
78	0xbe954ac9	-0.2915862
79	0xbec05d5f	-0.37571236
80	0xbd332580	-0.043736935
81	0xbd02d1e9	-0.031938467
82	0xbe5c5d49	-0.2151996
83	0xbf4aac2e	-0.79168975
84	0xbec090d5	-0.37610498
85	0xbeac0db8	-0.33604217
86	0xbe2b11c6	-0.16705999
87	0x3f2d842b	0.677798
88	0xbf0c1b86	-0.547295
89	0xbe6d946d	-0.23201151
90	0x3e010ed9	0.1260332
91	0xbd354218	-0.044252485
92	0xbeb154ff	-0.3463516
93	0x3f8e7b76	1.1131427
94	0xbe92a5f9	-0.28642252
95	0xbe59abce	-0.21256945
96	0x3e773fa5	0.24145372
97	0xbe90d31c	-0.28286064
98	0x3d334e06	0.04377558
99	0xbebc64e7	-0.36795732
100	0xbdb854f7	-0.09000581
101	0xbd7cc866	-0.061714552
102	0xbd98dd5d	-0.07464097
103	0xbd1edfbb	-0.038787585
104	0x3d8c832b	0.06860956
105	0x3e80c232	0.2514816
106	0xbcac0632	-0.020999048
107	0xbc935967	-0.017986966
108	0x3e36123e	0.17780396
109	0xbe6c0176	-0.23047432
110	0xbda76033	-0.081726454
111	0x3e8142cd	0.25246277
112	0xbe8cd03b	-0.27502617
113	0x3e69accd	0.22819825
114	0xbdcf4490	-0.10120499
115	0x3d478a6e	0.048716
116	0x3cb6ad9a	0.022299577
117	0x3d955f53	0.07293572
118	0xbe20bd7e	-0.15697286
119	0x3e192c32	0.14958265
120	0x3e1b31f5	0.15155776
121	0xbd93e2c3	-0.07220986
122	0x3dc5a4c5	0.09650568
123	0xbdc44810	-0.09584057
124	0x3d84277d	0.06452844
125	0x3dc84858	0.097794235
126	0x3b0d9d4c	0.0021608649
127	0x3cb644ac	0.022249542
128	0x3d05e4a1	0.03268874
129	0xbe06297c	-0.13101763
130	0x3d0085cb	0.031377595
131	0x3ae46ff3	0.0017428383
132	0xbb086fe6	-0.002081865
133	0xbf13e150	-0.57765675
134	0x3ef1c203	0.47218332
135	0xbf4085de	-0.75204265
136	0x3e5b3635	0.21407397
137	0x3f39635a	0.72417223
138	0x3ff55aea	1.916837
139	0x3fce1e4b	1.6102995
140	0x3e6d65b1	0.23183323
141	0x3e8c9dfe	0.27464288
142	0x3f7a26dd	0.9771555
143	0xbf7ed577	-0.9954447
144	0xbf526cc8	-0.82197237
145	0x3db84458	0.089974105
146	0xbf2ed99e	-0.6830081
147	0xbf36efe7	-0.7145981
148	0x3e5975a1	0.21236278
149	0x3dd4dd43	0.10393765
150	0xbefd92b6	-0.49525994
151	0x3e594674	0.21218282
152	0xbece082a	-0.40240604
153	0x3e6cf812	0.23141506
154	0x3e802579	0.2502859
155	0xbd085fa8	-0.03329435
156	0xbdd81fb0	-0.10552919
157	0xbf136701	-0.57579046
158	0xbd9d8442	-0.07691242
159	0x3d0fb951	0.03508884
160	0x3cb5f729	0.022212582
161	0xbe79adfb	-0.24382775
162	0xbeba75c6	-0.3641798
163	0xbea9f59f	-0.33195207
164	0xbd279ab1	-0.04091901
165	0xbf0f890e	-0.56068504
166	0xbe2635fd	-0.16231532
167	0xbec00c60	-0.3750944
168	0xbe7f8e40	-0.24956608
169	0xbd95a30d	-0.0730649
170	0x3dedcc7e	0.116112694
171	0xbefd0642	-0.49418837
172	0xbe5583e0	-0.20851088
173	0xbe97e5ce	-0.29667515
174	0x3ea227f9	0.31671122
175	0xbeee98e3	-0.46601018
176	0xbd16f4bc	-0.03685449
177	0x3de522f2	0.11188306
178	0xbe056313	-0.13026075
179	0x3d8f1721	0.06986833
180	0xbbb8d5f4	-0.0056407396
181	0xbc8fc15d	-0.017548257
182	0xbd0dcdb6	-0.03462001
183	0xbcfc573b	-0.030803313
184	0x3e36394a	0.17795292
185	0x3d981a8a	0.07426937
186	0x3e12e720	0.1434598
187	0x3dfaf704	0.12254146
188	0xbd279055	-0.04090913
189	0x3d2ac716	0.04169377
190	0xbdcb47ac	-0.0992578
191	0x3d92c6af	0.07166802
192	0x3e0bba92	0.1364539
193	0x3e132ac9	0.1437179
194	0x3ce27e8d	0.027648235
195	0x3ddaf0d5	0.10690466
196	0x3de8630f	0.11347019
197	0xbe2d1421	-0.1690221
198	0x3da1d170	0.07901275
199	0xbefa7332	-0.48916012
200	0x3e2d181a	0.16903725
201	0x3f26c902	0.65150464
202	0xbe2255f3	-0.158531
203	0xbfaf4da8	-1.3695574
204	0xbecafc70	-0.3964572
205	0x3e4db615	0.2008899
206	0x3e1cfa68	0.15329897
207	0xbf4428ac	-0.7662456
208	0x3f1c9d49	0.611775
209	0xbfd09242	-1.6294634
210	0x3d96c89f	0.07362484
211	0x3eaf7ccc	0.342749
212	0xbee8b378	-0.45449424
213	0x3ee03a34	0.43794405
214	0xbf0c92a8	-0.5491128
215	0x3f29ceb2	0.66331017
216	0xbebb2bf2	-0.36556965
217	0xbf164161	-0.5869351
218	0x3f2858a9	0.65760285
219	0x3d3f69ca	0.046731748
220	0x3e8a262c	0.26982248
221	0xbf880d97	-1.0629147
222	0xbf2c2ef9	-0.67259175
223	0xbeca6d93	-0.39536723
224	0x3e7f1b62	0.2491279
225	0x3eef2afa	0.46712476
226	0xbed94f5e	-0.42443365
227	0xbe9a3980	-0.30121994
228	0x3efa54a1	0.48892692
229	0x3e5c556a	0.21516958
230	0xbc920323	-0.017823761
231	0x3d97d016	0.07412736
232	0xbf0a0aa9	-0.53922516
233	0xbd83a481	-0.06427861
234	0x3ea479ec	0.3212427
235	0xbe92dbfc	-0.2868346
236	0xbcf277d0	-0.029598147
237	0xbdbc03ef	-0.09180438
238	0x3ddc02fb	0.10742756
239	0xbe94a1c3	-0.29029664
240	0x3e4c40fb	0.19946663
241	0x3e9897da	0.29803354
242	0xbeb7d5e6	-0.3590538
243	0xbeae9a0e	-0.3410191
244	0x3ed3c71e	0.41362852
245	0xbdc321e9	-0.09527952
246	0xbe24a81e	-0.16079757
247	0x3a4737c4	0.0007599557
248	0x3dd9e45f	0.106392615
249	0xbd9f2d26	-0.07772283
250	0x3e7d6262	0.24744561
251	0xbd30f520	-0.04320252
252	0xbe2a12ca	-0.1660873
253	0xbdbc58d0	-0.09196627
254	0xbddd0964	-0.10792807
255	0x3dbac6ad	0.09119926

actor.0.bias f4 [128]
0	0xbeb0bbc6	-0.3451826
1	0x3e27d391	0.163893
2	0xbe10ef1f	-0.14153717
3	0xbe106d0b	-0.14104097
4	0xbe67370f	-0.22579597
5	0xbd96a7c4	-0.073562175
6	0xbe085f75	-0.13317664
7	0xbea0fbc4	-0.31442082
8	0xbdeca061	-0.11554027
9	0xbe07eab8	-0.13273132
10	0xbebf6c51	-0.37387326
11	0xbee6c39c	-0.45071113
12	0xbedeaa68	-0.43489385
13	0xbe918c4b	-0.28427348
14	0xbeb542a5	-0.35402408
15	0xbeb02cce	-0.34409183
16	0xbee8be27	-0.45457575
17	0xbe8b9fb8	-0.27270293
18	0xbd2542e8	-0.04034701
19	0x3e94854b	0.29007944
20	0xbec1dbe7	-0.37863085
21	0xbe8a2078	-0.26977897
22	0xbea23f26	-0.31688803
23	0xbdbb93cf	-0.091590516
24	0x3e63bc51	0.22239806
25	0xbebc60e5	-0.36792675
26	0xbe9594f3	-0.29215202
27	0x3e5808d1	0.21097113
28	0xbeb10c4a	-0.34579688
29	0x3e0f9740	0.14022541
30	0xbdba7b85	-0.09105591
31	0x3ea182d8	0.31545138
32	0xbecdbc57	-0.40182754
33	0xbe87eb4e	-0.2654671
34	0xbebdf7ee	-0.37103218
35	0xbd716563	-0.05893458
36	0xbecfbfef	-0.4057612
37	0xbb2601b7	-0.0025330612
38	0x3cbe079c	0.023196988
39	0xbdb96812	-0.09053053
40	0xbe1bee9a	-0.15227738
41	0xbe994c40	-0.29940987
42	0xbef6fd69	-0.48240212
43	0x3dc18bf2	0.094505206
44	0xbf2625b5	-0.64901286
45	0xbca7dc8d	-0.020490909
46	0xbe5494a3	-0.20759825
47	0xbe7a9d98	-0.2447418
48	0xbe6e12be	-0.23249337
49	0xbeae79ac	-0.34077203
50	0xbe13f4e1	-0.14448883
51	0xbeb8676f	-0.36016414
52	0xbe8985ed	-0.2685999
53	0xbe74f4cf	-0.23921512
54	0x3e76a7e9	0.2408749
55	0x3d6fc0d9	0.058533523
56	0x3cc11e66	0.023574065
57	0xbda3c8c2	-0.07997276
58	0xbec8753f	-0.39151952
59	0x3be01ff9	0.006839749
60	0xbdc8eb35	-0.09810487
61	0xbdc4b99c	-0.09605715
62	0xbc4ce546	-0.012505835
63	0xbd801a4b	-0.06255015
64	0x3d5ea947	0.054360654
65	0xbd3921b2	-0.04519815
66	0x3c30bbd4	0.010786969
67	0x3e1a462b	0.1506583
68	0x3d53da9f	0.051722165
69	0xbe2ae3e7	-0.166885
70	0x3dc7b27e	0.097508416
71	0xbee0729f	-0.4383745
72	0xbea39517	-0.31949684
73	0xbc9a6640	-0.018847585
74	0x3d0d3379	0.034472916
75	0xbda33983	-0.07969954
76	0x3d353221	0.04423726
77	0xbc85e140	-0.01634276
78	0xbea96f59	-0.33092764
79	0xbe381f29	-0.17980637
80	0x3d9cd159	0.076571174
81	0xbea69f9b	-0.32543644
82	0xbe2fd4b2	-0.1717098
83	0xbe369ed6	-0.17834029
84	0xbe3ea5c0	-0.18617916
85	0xbe8ef081	-0.27917865
86	0x3d86a55d	0.06574509
87	0xbea30f93	-0.3184782
88	0xbe7ecf2d	-0.24883719
89	0xbcfd015f	-0.030884443
90	0x3e62c0cd	0.2214386
91	0xbecf74e3	-0.40518865
92	0xbe0f8f3d	-0.14019485
93	0xbe894806	-0.26812762
94	0xbec7ac15	-0.38998476
95	0x3e019914	0.12656051
96	0x3c8ffbed	0.017576182
97	0xbdf4175e	-0.119185194
98	0xbdce4341	-0.100714214
99	0xbe8ef2af	-0.27919528
100	0xba93bcbb	-0.0011271456
101	0xbdb81cb0	-0.08989847
102	0xbd26f81f	-0.04076397
103	0xbf01bb3d	-0.5067633
104	0xbea7117c	-0.32630527
105	0xbe8ab268	-0.27089238
106	0x3e9c6923	0.30548963
107	0xbea34fb8	-0.31896758
108	0xbcf55cff	-0.02995157
109	0xbe44f435	-0.19233783
110	0xbe0377c8	-0.12838662
111	0x3d45ca8c	0.048288867
112	0x3eb1137b	0.34585175
113	0xbec9b015	-0.39392152
114	0xbd439b14	-0.047755316
115	0xbedd0520	-0.43167973
116	0xbdb5f9d6	-0.08885543
117	0xbe69b017	-0.22821079
118	0xbec92e27	-0.39293024
119	0x3e9a6056	0.30151623
120	0xbda7ac64	-0.08187178
121	0xbe830588	-0.25590158
122	0xbd89b9a6	-0.06724863
123	0xbea96f25	-0.3309261
124	0xbf14369c	-0.5789583
125	0xbe74712c	-0.23871297
126	0xbe8c5219	-0.27406386
127	0xbe68f1b8	-0.22748458

actor.2.weight f4 [64, 128]
0	0x3dd18eb2	0.10232295
1	0x3d86c0c3	0.06579735
2	0xbe477876	-0.19479546
3	0x3e6b6739	0.22988595
4	0x3c2223c2	0.009896221
5	0x3dcfe88d	0.101517774
6	0x3e3bd539	0.18343057
7	0x3c84bf45	0.016204486
8	0xbd977db8	-0.07397026
9	0xbe9a0dd1	-0.30088666
10	0xbde8d810	-0.11369336
11	0x3e266ef4	0.16253263
12	0x3eaf2647	0.3420889
13	0xbe6fbc10	-0.23411584
14	0xbdccfe12	-0.100093976
15	0xbde8e4b5	-0.113717474
16	0x3ece688a	0.40314132
17	0x3e0ed75e	0.13949344
18	0x3e894962	0.268138
19	0x3dc35286	0.095372245
20	0x3dcaa4c5	0.098947085
21	0xbdc6ee37	-0.097134046
22	0x3de4b769	0.11167795
23	0x3f108d76	0.5646585
24	0xbe222cc7	-0.15837394
25	0x3e2810c2	0.16412643
26	0x3eebdbf8	0.4606626
27	0xbdff4bf4	-0.12465659
28	0x3e2d429d	0.16919942
29	0xbe218b65	-0.15775831
30	0xbee7f5f9	-0.4530485
31	0xbeedb991	-0.46430638
32	0x3e98c8cc	0.29840696
33	0x3d72d32f	0.05928343
34	0xbe37be8b	-0.1794378
35	0x3e9e8d4c	0.30967176
36	0xbe4b252f	-0.19838403
37	0xbd23455f	-0.03986108
38	0xbdbeee31	-0.09322775
39	0xbdbd24fa	-0.09235568
40	0x3d2b6865	0.041847605
41	0xbe0dfa3a	-0.13864985
42	0x3e26d001	0.16290285
43	0xbd96f4e5	-0.07370929
44	0x3e627ca1	0.22117855
45	0xbe4997c1	-0.19686796
46	0x3d931590	0.07181847
47	0x3e3c7c49	0.18406786
48	0xbefbfaa3	-0.49214658
49	0x3df7766c	0.12083134
50	0xbe85098b	-0.25983843
51	0xbe7f505e	-0.24933001
52	0x3d07c476	0.033146344
53	0xbe9be86f	-0.3045077
54	0xbe3d4c5b	-0.18486159
55	0x3e337496	0.17524943
56	0x3e370b78	0.17875469
57	0xbc38c6b5	-0.011277844
58	0x3e105215	0.14093812
59	0x3e85577f	0.26043317
60	0x3c519999	0.012792968
61	0xbdaad38d	-0.08341131
62	0xbe9ebb65	-0.31002346
63	0xbe750dbb	-0.23931019
64	0x3d13a1b3	0.03604288
65	0xbd9d7e55	-0.076901115
66	0xbe41248e	-0.18861601
67	0xbeb33965	-0.35004726
68	0xbe9580ed	-0.29199925
69	0xbd5157c5	-0.051109094
70	0xbeb005fc	-0.34379566
71	0x3eda553a	0.42643148
72	0x3dcd4784	0.10023406
73	0x3e2be344	0.16785914
74	0xbdc081f9	-0.0939979
75	0x3dfc43c3	0.12317612
76	0xbc88cfae	-0.016700592
77	0xbd38f8ff	-0.045159336
78	0x3e0107a6	0.12600574
79	0x3e8b652d	0.27225628
80	0x3d9456a4	0.07243088
81	0xbdead627	-0.114666276
82	0xbded6bc8	-0.11592823
83	0xbda7d438	-0.081947744
84	0x3df2885c	0.11842415
85	0x3de895ea	0.11356719
86	0x3e4c6232	0.19959334
87	0xbecba860	-0.39776897
88	0xbec626e5	-0.3870155
89	0x3e662ea9	0.22478737
90	0xbe5b8f22	-0.2144132
91	0x3d462a16	0.04837998
92	0x3e91b577	0.2845876
93	0x3d5262a1	0.05136359
94	0xbe0fa42b	-0.14027469
95	0xbe4348ad	-0.19070692
96	0xbdd21abf	-0.10259008
97	0xbe09ef87	-0.13470279
98	0xbc9913ca	-0.018686194
99	0xbe8e0d1d	-0.2774438
100	0xbe26ab80	-0.1627636
101	0x3e11a39f	0.14222573
102	0x3e0b076c	0.1357705
103	0x3e5d9df0	0.2164228
104	0x3b7a6c15	0.0038211395
105	0xbe0d5ed0	-0.138057
106	0xbd50960e	-0.050924353
107	0xbe033ce7	-0.12816201
108	0x3cad4a0c	0.021153472
109	0x3d772d7a	0.060346104
110	0xbee75bdc	-0.4518727
111	0x3aaedfdc	0.0013341862
112	0x3d056a26	0.032571934
113	0xbd771a6a	-0.060327925
114	0x3dffedb4	0.1249651
115	0xbe7ff82b	-0.24997012
116	0x3daeb029	0.08529694
117	0xbcf2172f	-0.02955207
118	0x3eac8976	0.33698624
119	0xbe6dd73d	-0.23226638
120	0xbe66c2d3	-0.22535257
121	0x3e92103d	0.28528014
122	0x3e01ddca	0.12682262
123	0x3e78a74b	0.24282567
124	0x3d4d9901	0.050194744
125	0xbe2667c0	-0.16250515
126	0xbdf80e96	-0.12112157
127	0x3e307345	0.17231472
128	0xbd069009	-0.032852206
129	0xbe17866b	-0.1479737
130	0xbee1f4bd	-0.44132033
131	0xbde97c95	-0.11400715
132	0xbed637ec	-0.4183954
133	0x3e624feb	0.22100799
134	0x3e88bb16	0.26705235
135	0x3d668dc6	0.05628755
136	0xbc9a71e6	-0.01885314
137	0x3e262a85	0.16227157
138	0x3c8a8b39	0.01691209
139	0x3dd56048	0.10418755
140	0x3dbfd42f	0.09366643
141	0xbe6f7ada	-0.23386708
142	0x3d82cf8e	0.06387244
143	0xbe9c1785	-0.30486694
144	0x3d489a0d	0.04897504
145	0xbdd92953	-0.10603585
146	0xbd96ecba	-0.07369371
147	0xbd991764	-0.074751645
148	0x3defe1bb	0.117129765
149	0xbe7e82f4	-0.24854642
150	0xbc92a0c1	-0.017898919
151	0x3e62b38a	0.22138801
152	0xbbe3a63f	-0.0069473083
153	0xbd87a2ab	-0.06622823
154	0xbdc30a4b	-0.095234476
155	0x3d650f6e	0.055922918
156	0x3e897ebd	0.26854506
157	0x3d8ff917	0.07029932
158	0xbd475063	-0.048660647
159	0x3c408a21	0.0117516825
160	0x3e044996	0.12918696
161	0x3e6ab8e1	0.22922088
162	0xbcd65bbb	-0.026166787
163	0xbe4c8801	-0.19973756
164	0xbd885a4b	-0.06657847
165	0x3c816203	0.015793806
166	0xbe57d4cd	-0.21077271
167	0xbe17d48c	-0.14827174
168	0xbdb08df5	-0.08620826
169	0x3e02259f	0.12709664
170	0x3e832da7	0.25620767
171	0x3e1f9be2	0.15586808
172	0x3e2369ad	0.15958281
173	0xbe010a3f	-0.12601565
174	0xbdac1914	-0.08403221
175	0x3e0e5265	0.13898619
176	0x3e2aed3e	0.16692063
177	0xbdf8abff	-0.12142181
178	0x3cfedd10	0.03111127
179	0xbe7a76c7	-0.24459372
180	0xbe990df1	-0.2989345
181	0x3e2888ef	0.16458486
182	0xbd22af8e	-0.039718203
183	0x3e8500e5	0.25977245
184	0xbdc2a90f	-0.095049016
185	0xbda9dadd	-0.08293698
186	0x3e2304dc	0.15919822
187	0x3e06a575	0.13149054
188	0x3df9eb0e	0.12203036
189	0x3e379163	0.17926554
190	0x3de5c626	0.112194344
191	0x3e028534	0.12746125
192	0x3e1b9ba0	0.15196085
193	0x3dae30e2	0.085054174
194	0xbdb73bdc	-0.08946964
195	0x3ddec0bd	0.10876606
196	0xbd9853a6	-0.0743783
197	0x3d991a29	0.07475693
198	0x3e102ca0	0.14079523
199	0x3d9ee12e	0.07757793
200	0xbe07bf8a	-0.1325666
201	0x3e5a1ed5	0.21300824
202	0xbe076b3d	-0.13224502
203	0x3d85b6b3	0.06528988
204	0xbdb9d4ab	-0.09073766
205	0x3e223f1b	0.15844385
206	0x3e1094ed	0.1411931
207	0x3e28b551	0.16475417
208	0x39340dac	0.00017171231
209	0x3e58287d	0.21109195
210	0xbe39e2b7	-0.18152891
211	0xbd74212c	-0.059601948
212	0xbd968438	-0.073494375
213	0xbe4e5c33	-0.20152359
214	0x3e916bc1	0.28402522
215	0x3cff9c05	0.031202326
216	0xbc07d568	-0.008290626
217	0x3d1e6662	0.03867186
218	0xbe2eaf4a	-0.17059055
219	0xbe5ad535	-0.21370395
220	0xbe59aa25	-0.21256311
221	0x3e607f4a	0.21923557
222	0xbce3726a	-0.027764518
223	0x3e251ecd	0.16125031
224	0xbd809c63	-0.062798284
225	0x3e89dd15	0.26926485
226	0xbe981c17	-0.2970893
227	0x3e1033b6	0.14082226
228	0xbd3ceec9	-0.04612616
229	0x3edb65f9	0.42851236
230	0x3d96552d	0.07340465
231	0xbb959a3d	-0.004565506
232	0x3e77005f	0.24121235
233	0x3e5501b3	0.2080143
234	0x3e031036	0.12799153
235	0xbe4d4057	-0.20044075
236	0xbe4a6c4a	-0.19767871
237	0xbdd04d36	-0.10170977
238	0x3da53f51	0.08068717
239	0xbee5ae05	-0.4485933
240	0xbdb1c70e	-0.08680545
241	0x3d77632d	0.060397316
242	0x3d41faca	0.04735831
243	0x3d9f7b80	0.07787228
244	0x3e2f6eb1	0.17132069
245	0xbcefcc54	-0.029272236
246	0x3e90a131	0.2824798
247	0x3d45deb5	0.048308093
248	0xbe883ae8	-0.26607442
249	0x3d5f1759	0.054465625
250	0x3dcffe98	0.10155982
251	0x3d0cf519	0.03441343
252	0xbdc2820f	-0.09497463
253	0x3d42573e	0.047446482
254	0x3e82f402	0.25576788
255	0x3c471242	0.012150349

actor.2.bias f4 [64]
0	0xbeb24126	-0.3481533
1	0x3ca069f8	0.01958178
2	0xbe2dcfeb	-0.16973846
3	0x3e2b337a	0.16718856
4	0xbdcca97b	-0.09993263
5	0xbe0d67e8	-0.13809168
6	0x3cb8c2e9	0.022553878
7	0xbcd95038	-0.02652751
8	0xbe80ee1c	-0.25181663
9	0xbe60d324	-0.21955544
10	0xbd7cb4d8	-0.061695904
11	0xbe2111a5	-0.15729387
12	0xbe010786	-0.12600526
13	0xbe0067f6	-0.12539658
14	0xbec885f1	-0.3916469
15	0xbe5519ac	-0.20810574
16	0xbe69a823	-0.22818045
17	0x3d9a5f94	0.07537761
18	0xbd616455	-0.055027325
19	0xbe900653	-0.28129825
20	0xbde87687	-0.11350732
21	0xbdaacfeb	-0.083404385
22	0xbe5f5ee7	-0.21813546
23	0x3d8e2e2f	0.069424026
24	0x3d3561ac	0.0442826
25	0xbe817c8b	-0.2529033
26	0xbe2fa445	-0.17152508
27	0xbe218489	-0.15773214
28	0xbe832d4d	-0.256205
29	0xbe5203ca	-0.20509258
30	0xbe9080b7	-0.28223202
31	0xbe2e3beb	-0.17015044
32	0xbecc051f	-0.39847657
33	0xbd2fa6d7	-0.04288372
34	0xbd6c0def	-0.057630476
35	0xbe391ce9	-0.18077435
36	0xbe09e137	-0.13464819
37	0xbe732efd	-0.23748393
38	0xbec00a3e	-0.37507814
39	0xbdb016a9	-0.08598072
40	0xbe914b1c	-0.28377616
41	0xbebf87ba	-0.3740824
42	0x3de48d77	0.11159795
43	0xbde35d1e	-0.11101745
44	0xbe81fde8	-0.25389028
45	0xbe827f0b	-0.2548755
46	0xbdff9ff0	-0.124816775
47	0x3cf619e5	0.030041644
48	0xbe8802c6	-0.26564616
49	0xbeb3691c	-0.3504113
50	0xbe8b0907	-0.27155325
51	0xbe960b73	-0.2930561
52	0xbbee210a	-0.007267122
53	0xbe791ee2	-0.24328187
54	0xbeffa35a	-0.49929315
55	0xbe14eec2	-0.14544204
56	0xbe2c9ffc	-0.16857904
57	0x3e2f2a29	0.17105927
58	0xbe77b074	-0.24188405
59	0x3d99f62c	0.07517657
60	0xbd886892	-0.0666057
61	0xbdde4016	-0.10852067
62	0xbdb25d25	-0.08709172
63	0xbe0a08e4	-0.13479954

actor.4.weight f4 [32, 64]
0	0xbdcc3353	-0.09970727
1	0x3e31944c	0.17341727
2	0xbe25ef67	-0.16204606
3	0xbd57507c	-0.05256699
4	0x3db3724c	0.08762035
5	0x3e734e4c	0.23760337
6	0x3e45f50b	0.19331758
7	0xbce84ea3	-0.02835781
8	0xbf12a9d1	-0.5729037
9	0x3dcf80d1	0.10131992
10	0x3d336d90	0.04380566
11	0x3e04b4ab	0.12959544
12	0x3da52a96	0.08064763
13	0xbe0254ee	-0.1272771
14	0xbd0579bf	-0.03258681
15	0xbd5c515d	-0.05378853
16	0x3e5f9e39	0.21837701
17	0x3dd5ed06	0.10445599
18	0x3e0151a1	0.12628795
19	0xbd11b0d7	-0.03556904
20	0xbd1daf0d	-0.03849702
21	0xbd3275f4	-0.04356952
22	0x3d522097	0.05130061
23	0xbdd97fed	-0.10620103
24	0xbe8bff6b	-0.27343306
25	0xbec2f44c	-0.3807701
26	0xbd8b0d2c	-0.06789622
27	0xbe543011	-0.20721461
28	0xbce44813	-0.027866399
29	0x3dc250d8	0.09488076
30	0xbe3ae004	-0.18249518
31	0x3c93ba17	0.01803307
32	0x3d3cc687	0.046087768
33	0x3db621a1	0.08893133
34	0xbd4c17a1	-0.04982722
35	0x3d99e76f	0.075148456
36	0xbd1345c4	-0.035955206
37	0xbe38514c	-0.17999762
38	0x3de15cc2	0.1100402
39	0xbe80378b	-0.25042376
40	0x3d8845c2	0.0665393
41	0x3d9099c5	0.07060579
42	0x3d0f5065	0.03498878
43	0xbdb556c5	-0.088544406
44	0x3e49f3bb	0.19721882
45	0xbce90be4	-0.028448053
46	0x3df0a690	0.11750519
47	0x3df706bc	0.12061831
48	0xbeaafd53	-0.33396396
49	0x3dda9985	0.10673813
50	0x3e45fc18	0.19334447
51	0xbd93ed6b	-0.07223018
52	0x3d0dc90e	0.03461557
53	0xbdc51aaf	-0.0962423
54	0x3e3085b6	0.17238507
55	0xbe2a9726	-0.16659221
56	0xbe2bf2c1	-0.16791822
57	0x3d1ec88a	0.038765468
58	0xbbd4b230	-0.006490968
59	0x3b532f33	0.0032224178
60	0xbe3457b7	-0.17611586
61	0x3d03e1c7	0.03219774
62	0xbe647b90	-0.2231276
63	0x3dd1af96	0.102385685
64	0xbde6c8db	-0.11268779
65	0xbdebe46a	-0.11518176
66	0x3d706d09	0.058697734
67	0xbdf173f7	-0.11789697
68	0x3d272de8	0.040815264
69	0xbdd2dcbf	-0.1029601
70	0xbd75c684	-0.060003772
71	0x3d4a73ad	0.049426723
72	0x3e1f46d1	0.15554358
73	0xbcdac585	-0.026705513
74	0xbbf5b6d4	-0.0074986015
75	0x3e771ca8	0.24132025
76	0xbe21a736	-0.15786442
77	0x3e23295a	0.15933743
78	0xbc538257	-0.012909493
79	0xbe591e1f	-0.21202897
80	0xbe69d695	-0.22835763
81	0x3defd789	0.11711032
82	0xbe54b080	-0.20770454
83	0x3e321a23	0.17392783
84	0xbe251665	-0.16121824
85	0xbe0c62a6	-0.13709506
86	0xbea29cd9	-0.3176029
87	0x3d969006	0.07351689
88	0x3eb2c770	0.34917784
89	0xbf28a454	-0.65875745
90	0xbd7e97ea	-0.062156595
91	0x3eb489e1	0.35261443
92	0xbe0d3be3	-0.13792376
93	0xbe535b1e	-0.20640227
94	0xbd23ccdb	-0.039990287
95	0x3e085b0a	0.13315979
96	0x3e21e365	0.158094
97	0x3e0e3227	0.13886319
98	0x3e48a78c	0.19595164
99	0x3de935a6	0.11387186
100	0xbe633921	-0.22189762
101	0x3da9c014	0.08288589
102	0xbdcb689f	-0.09932064
103	0x3dcbfaf8	0.09959978
104	0xbd24d161	-0.04023874
105	0x3e334512	0.17506817
106	0xbc851de7	-0.01624961
107	0xbe703a64	-0.23459774
108	0x3d5e8658	0.05432734
109	0xbce7ac01	-0.02828026
110	0x3c94eb48	0.018178597
111	0x3cd6fe99	0.026244448
112	0x3df43179	0.11923499
113	0xbf080be2	-0.5314313
114	0xbe02cbf6	-0.12773117
115	0x3e271af7	0.1631888
116	0xbe40f176	-0.1884211
117	0xbc7a5802	-0.015279772
118	0xbd72fdf2	-0.059324212
119	0xbeb0c612	-0.34526116
120	0xbdf65456	-0.120278046
121	0xbda08917	-0.07838648
122	0x3e88ce09	0.26719692
123	0x3c9c7bb6	0.019101959
124	0x3d7670dd	0.06016623
125	0x3e377647	0.17916213
126	0xbe6b5e1f	-0.22985123
127	0x3da5e0e7	0.08099537
128	0x3e11901a	0.14215127
129	0x3e72185e	0.23642108
130	0xbe86818f	-0.2627072
131	0x3d2b3510	0.04179865
132	0x3e233f48	0.15942109
133	0xbe495794	-0.19662315
134	0x3e6eaa71	0.23307206
135	0xbe7ab323	-0.24482398
136	0x3b9f41a5	0.0048601204
137	0xbdd50160	-0.10400653
138	0x3e52156b	0.20515983
139	0xbd858aec	-0.06520638
140	0xbc84c941	-0.016209247
141	0xbe3f87c0	-0.18704128
142	0xbdd7db9b	-0.10539933
143	0xbc02b88c	-0.00797857
144	0x3e3dd40a	0.18537918
145	0xbe46b800	-0.19406128
146	0x3d0ed0f0	0.034867227
147	0x3d9af54f	0.0756632
148	0x3cc4e372	0.024034236
149	0xbd1ea655	-0.038732845
150	0xbec0ddfd	-0.37669364
151	0xbd54b493	-0.05193002
152	0xbd5395b9	-0.05165646
153	0xbcc3ea14	-0.023915328
154	0xbc603133	-0.013683605
155	0x3dde0542	0.108408466
156	0xbe00b92c	-0.12570637
157	0xbd8c9a7e	-0.068654045
158	0xbe80ac38	-0.25131392
159	0xbd905520	-0.07047486
160	0xbd761749	-0.0600808
161	0xbe10c844	-0.14138895
162	0x3d36acf3	0.04459853
163	0x3e60f9b2	0.21970251
164	0x3e806458	0.25076556
165	0x3eb3b6c1	0.35100368
166	0xbe5a088c	-0.21292323
167	0x3e225045	0.15850933
168	0xbdc7d459	-0.09757299
169	0x3d67cf37	0.0565941
170	0xbcad0608	-0.02112104
171	0x3e27ba19	0.16379584
172	0xbdb52f08	-0.08846861
173	0x3e1b5052	0.15167359
174	0xbc204fe2	-0.009784671
175	0x3d520298	0.051272005
176	0x3c989efe	0.0186305
177	0xbe846f03	-0.25865945
178	0x3ed534c4	0.4164182
179	0x3e2e088c	0.16995448
180	0x3df0fb24	0.11766651
181	0xbda22fb3	-0.07919254
182	0xbd0dddcb	-0.034635346
183	0x3e902e17	0.28160164
184	0xbdfd9c9e	-0.12383388
185	0x3cbab927	0.022793366
186	0xbd645ddf	-0.055753585
187	0x3e224ac9	0.15848841
188	0xbdd77509	-0.105203696
189	0xbda0f255	-0.07858721
190	0x3dde8427	0.1086505
191	0x3e3bc273	0.18335895
192	0xbd59cc69	-0.053173456
193	0x3d515b1a	0.05111227
194	0x3d6461c6	0.055757307
195	0x3de21683	0.1103945
196	0xbe1313d5	-0.14363034
197	0x3e291e16	0.16515383
198	0x3e103620	0.14083147
199	0xbe08d8e3	-0.13363986
200	0xbe82f7fa	-0.25579816
201	0x3e2f0a8b	0.17093866
202	0xbe0ffe0d	-0.14061756
203	0x3e7bbd99	0.24584045
204	0x3dcb8615	0.099376835
205	0x3dcea731	0.10090483
206	0xbe3fabbb	-0.18717854
207	0xbe5cc8db	-0.21560995
208	0xbc964a7c	-0.018346064
209	0x3e0e590d	0.13901158
210	0xbd5d5a9e	-0.054041497
211	0xbdfdaf62	-0.12386967
212	0xbd30cd18	-0.043164343
213	0xbdbb34e9	-0.09140951
214	0x3b400544	0.0029300014
215	0xbe328727	-0.17434369
216	0xbe8778b1	-0.26459268
217	0x3d47917f	0.04872274
218	0x3e937318	0.28798747
219	0xbe49db1a	-0.19712487
220	0xbe91a02a	-0.28442508
221	0xbe31b2db	-0.17353384
222	0x3eb4547d	0.3522071
223	0x3e8bda47	0.2731497
224	0xbd858d40	-0.06521082
225	0xbdbaf902	-0.09129526
226	0x3daa159b	0.08304902
227	0x3c82a5a6	0.015948128
228	0x3de2640e	0.1105424
229	0xbcd631e9	-0.026146846
230	0xbe5afc4c	-0.21385306
231	0xbe33b83c	-0.17550749
232	0x3cdb6d5e	0.026785549
233	0x3dc64785	0.0968161
234	0xbed8c29b	-0.42335972
235	0xbece49ae	-0.40290588
236	0xbad7169b	-0.0016409935
237	0xbde6e789	-0.112746306
238	0x3e6319e3	0.22177844
239	0x3dcdeeec	0.10055336
240	0xbe36387e	-0.17794988
241	0xbe8bdc13	-0.2731634
242	0xbe6c3f09	-0.23070921
243	0x3e7a5f33	0.24450378
244	0xbcc3ee9e	-0.023917492
245	0x3d6505fb	0.055913907
246	0xbdd543ee	-0.10413347
247	0xbe0efd84	-0.13963896
248	0x3d3c4550	0.04596454
249	0xbd04893c	-0.03235744
250	0xbddabf3e	-0.10681008
251	0xbdc536b6	-0.09629576
252	0x3e196d06	0.14982995
253	0xbbfaded1	-0.0076559563
254	0xbe8f6775	-0.2800862
255	0xbdb3f556	-0.087870285

actor.4.bias f4 [32]
0	0x3d719804	0.058982864
1	0xbe5ed107	-0.21759425
2	0x3e037210	0.1283648
3	0xbc26774f	-0.010160281
4	0xbdb56a5d	-0.08858178
5	0xbd3bb368	-0.045825392
6	0xbe76f76d	-0.24117823
7	0x3dab2825	0.08357266
8	0x3d112619	0.035436723
9	0xbe586e57	-0.21135841
10	0xbe425c68	-0.18980563
11	0x3cca1025	0.024665901
12	0x3e1e793f	0.15475939
13	0xbc6e6543	-0.01455051
14	0xbdb0d3c7	-0.08634143
15	0x3d985105	0.07437328
16	0x3e32f5d7	0.17476593
17	0x3d214545	0.0393727
18	0xbe4685ec	-0.19387025
19	0x3da2e9ae	0.07954727
20	0xbd524ae5	-0.051340956
21	0x3b3d3cee	0.0028875428
22	0xbe1238ea	-0.14279523
23	0xbef4d89d	-0.47821513
24	0xbc91688f	-0.017750053
25	0xbee82350	-0.4533944
26	0x3d07bff5	0.03314205
27	0x3dc335d0	0.09531748
28	0xbdfb4d22	-0.12270571
29	0xbe936324	-0.28786576
30	0xbd7ea1c5	-0.062165994
31	0x3e828cf1	0.25498155

actor.6.weight f4 [18, 32]
0	0xbde6d3ee	-0.11270891
1	0x3e0b5b9c	0.13609165
2	0xbda3922d	-0.07986865
3	0xbd5f8687	-0.054571655
4	0xbe4da7dd	-0.20083566
5	0x3de0d9fd	0.10979078
6	0xbd5c8133	-0.05383415
7	0xbe37c6ed	-0.17946978
8	0xbecf4623	-0.40483198
9	0xbea56d13	-0.3230978
10	0xbe3a44a7	-0.18190251
11	0xbe0d8beb	-0.13822906
12	0xbe70efcd	-0.23528977
13	0x3d6c9d84	0.057767406
14	0x3e018a10	0.12650323
15	0x3c6eb277	0.0145689165
16	0xbe017c37	-0.1264504
17	0x3e495b56	0.19663748
18	0x3df628de	0.120195135
19	0xbd450b84	-0.048106685
20	0xbd68aabf	-0.05680346
21	0x3b5c02f8	0.0033571105
22	0xbe180c62	-0.14848474
23	0xbd6d5029	-0.057937775
24	0x3dbdbdce	0.09264718
25	0x3ccd9265	0.02509422
26	0x3e591a2e	0.21201393
27	0xba8008f2	-0.0009768291
28	0x3e18d71d	0.14925809
29	0x3dbb29bf	0.09138822
30	0x3c854114	0.016266383
31	0x3d2486fb	0.04016779
32	0xbc19fe13	-0.009398955
33	0xbd711d62	-0.058865912
34	0x3d8c8bd7	0.0686261
35	0xbe3245f1	-0.17409493
36	0x3e725b7b	0.2366771
37	0xbd3f498d	-0.046701003
38	0x3d41524c	0.047197625
39	0x3cca4934	0.02469311
40	0x3e30473e	0.17214677
41	0xbe53c02c	-0.20678777
42	0xbd52ee28	-0.051496655
43	0xbe0875e0	-0.13326216
44	0xbe21f833	-0.15817337
45	0x3d41139b	0.047137838
46	0xbdbe51b9	-0.09292931
47	0x3e26ae8a	0.16277519
48	0x3e2dac00	0.16960144
49	0x3dcd5ec5	0.100278415
50	0x3d52711f	0.051377412
51	0x3df8389d	0.12120173
52	0xbc333dac	-0.010939997
53	0xbdb39f42	-0.087706104
54	0xbdad7b06	-0.084707305
55	0x3e16d0b5	0.14728053
56	0xbdc00dd8	-0.093776405
57	0x3e15805c	0.14599746
58	0xbdea4f20	-0.11440873
59	0x3e1ca7e6	0.15298423
60	0x3d209447	0.03920391
61	0x3ce4cab7	0.027928693
62	0x3d10d1a0	0.035356164
63	0x3daaeed4	0.08346334
64	0x3d1a2095	0.03762873
65	0x3d97944f	0.074013345
66	0x3e435dde	0.19078776
67	0xbd849ebe	-0.0647559
68	0xbcb135e7	-0.021632148
69	0x3d2b38ee	0.04180234
70	0x3deab8ec	0.11461052
71	0xbe15fa7f	-0.14646338
72	0x3da5c656	0.0809447
73	0x3d98df6d	0.0746449
74	0x3b77025f	0.0037690622
75	0xbe0daa77	-0.13834558
76	0x3d57960d	0.052633334
77	0x3d727ebe	0.059202902
78	0xbdc5abcf	-0.096519105
79	0xbe5ce32c	-0.21571034
80	0x3e679494	0.22615272
81	0xbd75565d	-0.059896816
82	0x3dee1509	0.11625106
83	0x3eb15945	0.3463842
84	0x3c899e86	0.016799223
85	0x3d25148a	0.04030279
86	0xbe04bc08	-0.12962353
87	0xbe458318	-0.1928829
88	0x3e1aacd1	0.15104987
89	0xbe58d075	-0.2117327
90	0xbd3237ba	-0.043510176
91	0x3d578cd7	0.05262455
92	0x3c1b1c90	0.009467259
93	0x3e1eaa53	0.15494661
94	0xbd92e3c8	-0.07172352
95	0x3d513df6	0.05108448
96	0xb9f19f23	-0.00046085668
97	0x3e425dcd	0.18981095
98	0x3ead6263	0.33864126
99	0x3b544928	0.0032392237
100	0x3db8dc87	0.09026437
101	0x3dc94ece	0.09829484
102	0xbe160565	-0.14650495
103	0x3dc17375	0.0944585
104	0xbdd274d4	-0.102761894
105	0xbe55244a	-0.20814624
106	0x3d677c59	0.05651507
107	0xbdd3818f	-0.10327446
108	0xbdbd91fc	-0.0925636
109	0xbe302240	-0.17200565
110	0xbd3ef0ff	-0.04661655
111	0x3d58541a	0.05281458
112	0xbea0ef75	-0.3143269
113	0xbe5660a2	-0.209353
114	0x3de8322c	0.113376945
115	0x3deefc6e	0.11669241
116	0xbc00a73a	-0.00785237
117	0xbe54dc33	-0.20787124
118	0x3dc1cd78	0.09463018
119	0xbd583054	-0.052780464
120	0x3be0d274	0.0068610255
121	0x3c3110bd	0.010807213
122	0xbdf16610	-0.11787045
123	0x3df8975c	0.121382445
124	0x3d32cdd5	0.043653328
125	0xbd121ac1	-0.035670046
126	0xbe4b8345	-0.19874294
127	0x3d718caf	0.058972057
128	0xbdabc1fe	-0.083866104
129	0x3c976585	0.018481025
130	0x3e0ecf37	0.13946234
131	0xbe0d473d	-0.13796706
132	0xbcd03b13	-0.025418794
133	0xbe2eadb2	-0.17058447
134	0xbd3cbd21	-0.046078805
135	0x3dd2c1e6	0.102908894
136	0xbcfe92ab	-0.031075796
137	0xbe74d7b1	-0.23910405
138	0xbddb07ae	-0.10694824
139	0xbbfaa676	-0.007649238
140	0xbe392297	-0.18079601
141	0xbd107d7b	-0.035275918
142	0xbdaf8703	-0.08570673
143	0xbdd36f05	-0.1032391
144	0x3e3a537f	0.18195914
145	0x3e202a1d	0.15641065
146	0xbd3e8e5d	-0.046522487
147	0x3def0560	0.11670947
148	0x3d38e038	0.045135707
149	0xbe5b9a91	-0.21445681
150	0x3dc06030	0.09393346
151	0xbd9793b9	-0.07401223
152	0xbddb6a42	-0.107136264
153	0x3d29a27d	0.041414727
154	0x3e5225f4	0.2052229
155	0xbc9540ac	-0.018219315
156	0xbd459bea	-0.048244394
157	0x3d625042	0.05525232
158	0xbc6bf261	-0.014401049
159	0x3e63fc09	0.22264113
160	0xbd3af3d0	-0.045642674
161	0x3dcf2c89	0.10115916
162	0x3eb9fbce	0.36324924
163	0xbe4609a3	-0.19339614
164	0xbde84710	-0.11341679
165	0xbc7e3064	-0.015514467
166	0xbd5db5b7	-0.054128375
167	0xbd817f4c	-0.06323108
168	0xbdab662f	-0.08369099
169	0xbdc62fdb	-0.096770965
170	0xbca96763	-0.020679181
171	0x3e4b08a1	0.1982751
172	0x3e325448	0.17414963
173	0x3d9b0e1e	0.07571052
174	0xbc618404	-0.013764385
175	0x3df5adda	0.1199605
176	0x3e145195	0.14484246
177	0x3c459b46	0.012060946
178	0xbd5c7e59	-0.053831432
179	0x3e66d59d	0.22542424
180	0xbba037be	-0.0048894575
181	0xbe47a136	-0.19495091
182	0xbb658785	-0.0035023403
183	0xbd12aaae	-0.035807304
184	0xbdd8d822	-0.10588099
185	0xbe59ee8f	-0.21282409
186	0x3d5a44fa	0.053288437
187	0x3e3c943a	0.18415919
188	0xbb994a37	-0.0046780366
189	0xbde2d6c4	-0.110761195
190	0x3e88013f	0.2656345
191	0xbe176fa8	-0.14788687
192	0x3eb4b7f9	0.3529661
193	0xbd2662f7	-0.040621724
194	0xbd91ff39	-0.07128758
195	0xbdb35d0f	-0.08757984
196	0xbd84512a	-0.06460793
197	0xbeccdc65	-0.40011898
198	0xbe0f96ee	-0.14022419
199	0xbe881228	-0.26576352
200	0x3df6eed7	0.12057274
201	0xbdba0daf	-0.09084641
202	0x3dc51f1f	0.096250765
203	0xbe3c2743	-0.18374352
204	0x3de8c8a6	0.11366396
205	0xbe35a653	-0.17739229
206	0x3df5d027	0.120025925
207	0xbd93c6e0	-0.07215667
208	0x3d5b2e75	0.0535111
209	0xbd5e24c0	-0.054234266
210	0x3d196460	0.03744924
211	0x3c8893c8	0.01667203
212	0xbe5981d8	-0.21240938
213	0x3e0ac185	0.13550384
214	0x3d9ceee5	0.07662753
215	0x3e42c629	0.19020905
216	0xbe1584db	-0.14601462
217	0x3d3c511c	0.04597579
218	0xbd6461d3	-0.055757355
219	0xbd2bb94f	-0.04192477
220	0xbdace577	-0.084422044
221	0x3de9194e	0.113817796
222	0x3e39c60a	0.18141952
223	0x3da6f135	0.08151475
224	0x3e70d2c1	0.23517896
225	0xbde9e4aa	-0.11420567
226	0x3c9ec4e3	0.019380992
227	0x3ddfd091	0.10928453
228	0xbca115b8	-0.019663677
229	0x3e9101cc	0.28321683
230	0x3cfe220c	0.031022094
231	0x3c4fedc0	0.012690961
232	0xbd840b2c	-0.06447443
233	0xbdf8e48f	-0.12152969
234	0xbca44c58	-0.020055935
235	0x3c4a7f53	0.012359458
236	0x3de03d63	0.109492086
237	0x3d0b38c3	0.03398968
238	0x3e05eca1	0.13078548
239	0xbca5c5a0	-0.020235837
240	0xbd0a9417	-0.033832636
241	0x3e399aa9	0.18125404
242	0xbd82024d	-0.06348095
243	0x3e10b396	0.14131007
244	0x3d60e84f	0.054909047
245	0x3e60f8bd	0.21969886
246	0xbdfcb5c0	-0.123393536
247	0xbe3d59ed	-0.18491335
248	0xbc087f0b	-0.008331071
249	0xbe37a1c9	-0.1793281
250	0xbc59bd22	-0.013289722
251	0xbd27a28e	-0.04092651
252	0xbba4ba76	-0.0050271107
253	0xbceb4b1c	-0.028722338
254	0xbe0dcd5d	-0.13847871
255	0x3e08df9d	0.13366552

actor.6.bias f4 [18]
0	0x3e429c80	0.19005013
1	0x3e675d7e	0.22594258
2	0xbcf9f0a2	-0.03051025
3	0xbe3301fe	-0.17481229
4	0x3ee56cc4	0.44809544
5	0x3e92ca8b	0.28670153
6	0x3db04b11	0.08608068
7	0x3ef845cd	0.48490754
8	0x3e134085	0.14380081
9	0x3dafba3c	0.08580443
10	0x3f22a802	0.6353761
11	0x3e45be6d	0.19310923
12	0xbe14b049	-0.14520372
13	0x3ee5e5fe	0.44902033
14	0x3e7c88a6	0.24661502
15	0xbe45e69b	-0.1932625
16	0x3e31e394	0.1737197
17	0x3ea44862	0.32086474

critic.0.weight f4 [128, 66]
0	0xbe33930b	-0.17536561
1	0x3d8632e9	0.06552679
2	0x3dedc1be	0.11609219
3	0xbe4522d4	-0.19251567
4	0x3d719376	0.05897852
5	0x3c4de0fe	0.012565849
6	0xbe1f4734	-0.15554506
7	0x3e19ffc6	0.15038976
8	0x3dac912d	0.084261276
9	0x3e54fc4d	0.2079937
10	0xbe2f7f86	-0.1713849
11	0xbe8a07bb	-0.26959023
12	0x3e8dfd97	0.27732536
13	0xbe1c5acb	-0.1526901
14	0xbd159b40	-0.03652501
15	0x3e23c5af	0.15993379
16	0x3d85a435	0.06525461
17	0xbd2277a1	-0.03966487
18	0xbe5e62f1	-0.2171743
19	0x3c5c0e3d	0.013431129
20	0x3e0d5777	0.13802896
21	0xbd6e42e5	-0.058169264
22	0xbbb9bf98	-0.0056685917
23	0x3def93c3	0.11698105
24	0xbdde6835	-0.1085972
25	0xbcaebc9e	-0.021330174
26	0xbd912e2a	-0.07088883
27	0x3d523f3b	0.051329833
28	0xbe1dd612	-0.15413693
29	0x3d2be24c	0.04196386
30	0xbd181fbd	-0.037139643
31	0xbdc55d2a	-0.0963691
32	0x3cb92c67	0.02260418
33	0x3b02c339	0.0019952788
34	0xbe19c72f	-0.15017389
35	0x3d81781e	0.06321739
36	0x3e845d6a	0.2585252
37	0xbc9e1851	-0.019298704
38	0x3cf8de51	0.030379446
39	0xbd0f5ecb	-0.03500251
40	0x3dccc917	0.09999292
41	0x3dc0b03b	0.09408613
42	0x3ddcb279	0.107762285
43	0x3d5f459e	0.05450975
44	0xbc30301d	-0.010753659
45	0xbdfb3610	-0.12266171
46	0xbe06ceb5	-0.1316479
47	0x3d9eeb23	0.077596925
48	0xbb893c07	-0.004188064
49	0x3cb213ac	0.021737896
50	0x3bc08ecd	0.005876398
51	0xbca1ec42	-0.019765977
52	0xbc51b438	-0.012799315
53	0xbccba5e3	-0.024859374
54	0xbd567d90	-0.05236584
55	0x3d2677bf	0.040641543
56	0xbb53a98f	-0.003229711
57	0x3d50f7f1	0.051017705
58	0xbc83ec9e	-0.016104039
59	0x3c231941	0.0099547515
60	0xbd97cca2	-0.074120775
61	0xbc3e6512	-0.011620777
62	0x3b5609f3	0.0032659739
63	0xbd79e4be	-0.06100916
64	0x3d17d1ff	0.037065502
65	0xbc3a7c2f	-0.011382147
66	0x3d9d301c	0.07675192
67	0xbe2edeb1	-0.17077138
68	0x3dd46882	0.10371496
69	0x3dbac7e1	0.09120155
70	0xbf0bd132	-0.5461608
71	0x3ead9c67	0.33908388
72	0xbee5d82c	-0.4489149
73	0xbe167b52	-0.1469548
74	0xbc41c9b6	-0.011827877
75	0xbd67c63d	-0.05658554
76	0x3d1eb7cc	0.0387495
77	0xc0057d94	-2.0857897
78	0xbdcf25f1	-0.101146586
79	0xbdafd6d3	-0.08585896
80	0xbdaf1c1b	-0.085502826
81	0xbd7eec2e	-0.062236957
82	0x3e1e77de	0.15475413
83	0xbe1c81e7	-0.15283929
84	0xbee5ade0	-0.4485922
85	0xbcfb80c1	-0.030701043
86	0x3c76673f	0.015039264
87	0x3e6aa6c9	0.22915186
88	0xbdb9d7f1	-0.09074391
89	0x3e6897ea	0.227142
90	0x3db84388	0.089972556
91	0x3d811ddc	0.06304523
92	0x3d3976d4	0.04527934
93	0x3c11c6d1	0.008897499
94	0xbe190ad0	-0.14945531
95	0x3d96c458	0.07361668
96	0xbc7cc620	-0.015428096
97	0x3b0cae74	0.0021466287
98	0x3cd938a0	0.026516259
99	0x3e31fef4	0.17382413
100	0xbd36d7fb	-0.04463957
101	0xbe0a21ba	-0.13489428
102	0x3d9a1808	0.07524115
103	0x3d20b150	0.0392316
104	0xbc100c6c	-0.008792024
105	0x3ef772a8	0.48329663
106	0x3e4728fe	0.19449231
107	0xbca0489c	-0.019565873
108	0x3efdaabd	0.49544325
109	0x3d9d73f0	0.07688129
110	0xbaa678d6	-0.0012700807
111	0xbc8a8430	-0.016908735
112	0xbc6d926a	-0.01450024
113	0x3d17fa3c	0.037103876
114	0x3ca3e60c	0.020007156
115	0xbcb3dc58	-0.021955654
116	0x3d0045ea	0.031316675
117	0xbb67682d	-0.0035309896
118	0xbd56f98d	-0.052484084
119	0x3ccc1dfb	0.02491664
120	0x3d7d608f	0.061859664
121	0xbc3f6e3e	-0.011683999
122	0xbc201916	-0.009771606
123	0xbd2465c0	-0.0401361
124	0x3c23cc46	0.009997433
125	0x3cbf5de4	0.0233602
126	0xbd441c3c	-0.04787849
127	0xbd1dfea8	-0.038572937
128	0xb9a761dd	-0.00031925636
129	0xbd893af0	-0.067006946
130	0xb92892ff	-0.00016076489
131	0xbd24bbd5	-0.040218193
132	0x3dae305a	0.08505316
133	0xbe435fb2	-0.19079474
134	0x3c4e7632	0.012601422
135	0x3e8f5136	0.27991647
136	0xbe5c73a6	-0.21528491
137	0x3eb8afa3	0.360715
138	0x3b52d27d	0.0032168918
139	0xbe0dd62c	-0.13851231
140	0x3dac51ef	0.08414065
141	0xbde8a109	-0.1135884
142	0x3e45ba2a	0.19309297
143	0xbfa02cde	-1.2513692
144	0xbdc582f9	-0.09644122
145	0x3e0cc472	0.13746813
146	0x3d311579	0.04323337
147	0xbc9c8e48	-0.019110814
148	0x3dc9681d	0.09834311
149	0x3ca36f81	0.01995063
150	0xbd3a134b	-0.045428555
151	0x3dbc4eb1	0.09194697
152	0x39124863	0.00013950611
153	0xbc9b3643	-0.018946772
154	0x3d209b74	0.03921075
155	0x3e243ba4	0.16038376
156	0xbce5a7e8	-0.028034166
157	0x3defe224	0.11713055
158	0x3df639c0	0.12022734
159	0x3e599cfa	0.21251288
160	0xbdf36390	-0.118842244
161	0x3e4a0d1d	0.19731565
162	0xbd475517	-0.048665132
163	0x3d1489ab	0.036264103
164	0xbcbd5cd8	-0.02311556
165	0xbdc46244	-0.09589055
166	0x3d1c3286	0.03813412
167	0xbcd938db	-0.026516369
168	0x3dde600d	0.10858164
169	0xbe1133b7	-0.14179884
170	0xbc7f3db1	-0.015578673
171	0x3e0e4881	0.13894846
172	0xbe4bec47	-0.19914351
173	0xbd927fb3	-0.07153263
174	0x3e12897a	0.14310256
175	0x3c2e7827	0.010648764
176	0xbc6c784b	-0.014432977
177	0x3e359eb4	0.17736322
178	0xbcf653cc	-0.030069254
179	0xbd29fea9	-0.04150263
180	0xbd3caad2	-0.046061344
181	0xbbe5cbe0	-0.007012829
182	0x3cd1d736	0.025615316
183	0x3d6e03c4	0.05810906
184	0xbd9e7df5	-0.07738868
185	0x3bfc1fa1	0.0076942
186	0x3d5e563f	0.05428147
187	0xbcc97fb3	-0.024597025
188	0xbbd496d9	-0.006487709
189	0xbbfa0b60	-0.0076307505
190	0x3ae1f7a9	0.0017239946
191	0xbbbbae9e	-0.005727603
192	0x3d657872	0.05602307
193	0x3d173e3b	0.036924582
194	0x3cebacea	0.028768975
195	0x3c62664f	0.013818338
196	0x3d275cac	0.040859863
197	0x3d35c545	0.044377584
198	0xbd510853	-0.05103333
199	0xbe221175	-0.15826972
200	0x3efa568a	0.4889415
201	0xbdd59d0b	-0.10430344
202	0x3c691777	0.014226786
203	0xbeab2103	-0.33423623
204	0x3ef4f3f1	0.47842363
205	0xbe36ee39	-0.17864312
206	0x3d2cb2f1	0.04216284
207	0x3d08354b	0.03325395
208	0x3e6a83cc	0.22901839
209	0xbf2bd413	-0.67120475
210	0x3f273ff0	0.65331936
211	0x3d4799e8	0.04873076
212	0x3d722aa7	0.059122708
213	0xbdd0db89	-0.10198123
214	0x3ea14dab	0.31504568
215	0xbe8c1fa2	-0.27367884
216	0xbf6f442d	-0.93463403
217	0xbe42c952	-0.1902211
218	0x3e1aabae	0.15104553
219	0x3c98d55b	0.018656423
220	0xbd21a81c	-0.039466962
221	0xbdd39eae	-0.10333
222	0x3daccf97	0.08438032
223	0xbd566a64	-0.052347556
224	0xbe03bd2b	-0.1286513
225	0xbe5795b9	-0.21053208
226	0xbdd130c8	-0.102143824
227	0x3db12d0d	0.08651171
228	0x3ed49912	0.41523033
229	0xbe03fd3c	-0.1288957
230	0x3cd15373	0.025552487
231	0x3e14e6b0	0.14541125
232	0xbd71c50b	-0.059025805
233	0xbb374927	-0.0027967186
234	0xbee93d41	-0.45554546
235	0x3d9bcbd7	0.07607239
236	0xbc9c3ff0	-0.019073457
237	0x3e06f0e0	0.13177824
238	0xbe65588b	-0.22397058
239	0xbd770147	-0.060303953
240	0x3db64c72	0.089012995
241	0xbe21674b	-0.1576206
242	0x3d9555d3	0.0729176
243	0xbbd6d9b2	-0.006556713
244	0xbbcff3cd	-0.006346202
245	0xbd354a75	-0.04426046
246	0x3df696e4	0.12040499
247	0x3d825adc	0.06364986
248	0xbc09e732	-0.008416938
249	0xbd8c895e	-0.06862138
250	0xbce6c2dd	-0.02816909
251	0x3ce6f338	0.028192148
252	0xbd703c7c	-0.058651432
253	0xbd84e17f	-0.064883225
254	0x3c51d6d1	0.012807564
255	0xbd218f87	-0.03944352

critic.0.bias f4 [128]
0	0x3d8b0a03	0.06789019
1	0x3da187a2	0.07887198
2	0xbe6cd582	-0.23128322
3	0xbdaac288	-0.08337885
4	0x3e98a18c	0.2981075
5	0xbdb6c131	-0.08923567
6	0xbe0be8fd	-0.13663097
7	0xbdeb815e	-0.11499284
8	0xbe39c608	-0.18141949
9	0xbd41022f	-0.047121223
10	0xbcd1597d	-0.025555367
11	0x3e4a27bf	0.19741724
12	0xbdfb7d44	-0.12279752
13	0xbe01a00f	-0.12658714
14	0x3e6d54ed	0.23176928
15	0x3dc7b633	0.097515486
16	0x3dd8d6ad	0.10587821
17	0x3daeba7b	0.08531662
18	0x3e10d468	0.14143527
19	0xbe9f5c8a	-0.3112529
20	0xbe137490	-0.14399934
21	0xbd26c2ae	-0.040713005
22	0x3da055ed	0.07828889
23	0x3a597c7d	0.0008296443
24	0x3d30b22f	0.04313868
25	0xbe6da2ab	-0.23206584
26	0xbe806e3a	-0.25084096
27	0xbe19b868	-0.15011752
28	0x3d12f30b	0.035876315
29	0xbde03973	-0.109484576
30	0x3db49a9c	0.08818552
31	0x3d9543e2	0.07288338
32	0xbe59784c	-0.21237296
33	0x3e368dca	0.17827526
34	0xbdfd7484	-0.12375739
35	0x3d99586c	0.07487568
36	0xbda8a608	-0.08234793
37	0xbe557986	-0.20847139
38	0x3b584cc9	0.0033004752
39	0xbe20e632	-0.15712813
40	0xbe9e63ec	-0.3093561
41	0x3d8cce10	0.06875241
42	0xbb74f997	-0.0037380212
43	0xbe418249	-0.18897356
44	0x3ad77291	0.0016437342
45	0xbe1ad551	-0.15120436
46	0xbadd6c37	-0.0016893212
47	0x3d0c390a	0.034234084
48	0xbedc6b7d	-0.43050757
49	0xbe85bb82	-0.2611962
50	0x3b09877f	0.0020985303
51	0x3d8ebee1	0.06970001
52	0x3e052fc5	0.13006504
53	0x3d0899f5	0.03334995
54	0x3cf4107b	0.029793015
55	0xbe63af26	-0.22234783
56	0x3d4358e7	0.047692206
57	0xbf1647da	-0.58703387
58	0xbca90810	-0.020633727
59	0xbb29a48d	-0.0025885433
60	0xbe27514e	-0.16339609
61	0xbc7aed31	-0.01531534
62	0xbc96d106	-0.018410217
63	0xbe989096	-0.2979781
64	0xbda99a94	-0.082814366
65	0xbd3c1cd5	-0.045925934
66	0xbc8b0738	-0.016971216
67	0x3c0a3913	0.008436459
68	0xbdea4f8e	-0.11440955
69	0x3e33ab76	0.17545876
70	0x3e5cc370	0.21558928
71	0xbe26d0c3	-0.16290574
72	0xbe456425	-0.19276483
73	0xbe9fa33b	-0.31179222
74	0x3cbf8173	0.023377156
75	0x3d014df1	0.03156847
76	0xbe731583	-0.23738675
77	0x3e038b0a	0.12846008
78	0x3e3d9973	0.18515567
79	0xbe38d89e	-0.18051383
80	0xbda68bf5	-0.081321634
81	0x3dbdd0c9	0.09268338
82	0x3e1f3eab	0.1555125
83	0xbe77f22b	-0.24213473
84	0xbe5e8ae1	-0.21732666
85	0xbee47e76	-0.44627732
86	0xbce50079	-0.027954327
87	0xbe89f4ae	-0.26944488
88	0xbe753a89	-0.2394811
89	0xbe48f59f	-0.19624947
90	0x3e79e49a	0.24403611
91	0x3d8574c1	0.0651641
92	0xbd00b99c	-0.03142701
93	0xbd0a2de6	-0.03373518
94	0xbe14eba9	-0.14543022
95	0xbe1c7c3c	-0.15281767
96	0xbe0976d1	-0.13424231
97	0xbe2657f2	-0.16244486
98	0x3d8516fe	0.06498526
99	0x3e2c8644	0.16848093
100	0xbdea1c21	-0.114311464
101	0xbd509c99	-0.050930593
102	0x3e4236c2	0.18966201
103	0xbe09a8be	-0.13443276
104	0x3dff12f9	0.124547906
105	0xbda545b7	-0.08069938
106	0xbdc8c651	-0.09803451
107	0x3e66d614	0.22542602
108	0xbe821acc	-0.2541107
109	0x3e236e76	0.15960106
110	0xbdb61908	-0.08891493
111	0xbe26e29e	-0.16297385
112	0xbe4d6681	-0.20058633
113	0xbea59f01	-0.32347873
114	0xbe9e4937	-0.30915233
115	0xbd8ad7de	-0.06779455
116	0x3d4e0447	0.050297048
117	0x3d570d78	0.05250308
118	0x3e5d2b2a	0.21598497
119	0xbddee5d1	-0.10883678
120	0x3e243b2a	0.16038194
121	0xbd99eb01	-0.075155266
122	0xbe3b5810	-0.18295312
123	0x3dbe9fa6	0.09307794
124	0xbe085fdf	-0.13317822
125	0x3e5344df	0.20631741
126	0xbcc1cc2d	-0.023656929
127	0xbe812210	-0.252213
