legged_gym/ckpt/anymal_c/plane_walk_200.pt (torch, 423834 bytes, 48 tensors)

std f4 [12]
00000000: cd0a 953e 95bc f93e 4287 b23e 5c56 8d3e
00000010: 975b f23e ba5e bb3e e9af 973e ae0f fc3e
00000020: 5cc4 b33e a699 873e bbb0 f53e 4627 be3e
0.29109803 0.4877669 0.3486882 0.2760495 0.47335503 0.36595708 0.29626396 0.49230713
0.35110748 0.26484412 0.47986397 0.37139338

actor.0.weight f4 [128, 48]
00000000: d540 c2bd ad5c 97bd ba8e f4bd 0a18 103d
00000010: 10cb 7a3d b360 d73f 4de2 dabe 6147 f7be
00000020: a3eb a2bd 6aa5 d73d 4507 5dbc 3064 7abf
00000030: c5b9 173e e977 3bbe a980 163f d630 5f3e
00000040: 3d72 0abf 2b44 afbe f2f0 963e dc7a b33d
00000050: 33b4 ca3c c8f9 e9bd 7d8a 19be 8872 b6be
00000060: 0cde 0c3e e469 dc3e be79 c0be 5152 143f
00000070: e5fd 1ebf 922c 8a3e 3341 9b3c 092c 733e
00000080: ec4c d43e df49 933e 8008 833e e8b2 0fbd
00000090: 095b 773d 4739 033e f3b9 7bbe 2993 92bd
000000a0: 0931 debd c206 d83d 0d23 e4bd f736 363d
000000b0: b714 21bd 37cb e5bd 9977 093d 45d5 c33d
000000c0: b2ae bbbe 602a f53e 8851 343e e1b7 7abe
000000d0: 8da3 dcbe b391 13bf 6149 03bf 4963 8b3e
000000e0: 3a22 bb3d be28 953e 4983 f4be cb27 3b3f
000000f0: 4bdd 06be 068b 03bf 71b1 203e bde0 2b3e
00000100: 1335 973e 9c3f 1a3e a202 5dbe cd32 463d
00000110: 56d5 633d 441b c6be b471 a5be 62d7 493d
00000120: dfcd c23e 4abd 26be 530c 89be 0023 b03e
00000130: 1bc1 ecbe 65ee 313c b883 64be 3db9 9a3e
00000140: f688 223e 163b 7abe e955 ecbe e761 f9bc
00000150: 7927 af3e 9247 1a3c 9b34 133e 9d0a 213d
00000160: 4e5e 163e f3ab 993d 1c47 97bc 8db6 c73c
00000170: 8e70 99be ed50 3c3e 28ee b4bd c252 34bd
00000180: c77a 283e 03be 1fbe 862c 5abe 28d1 ea3e
00000190: f9f3 1abf 3e8a 433f d98d b33e 24f4 cabd
000001a0: 13b0 5bbe 36b6 dcbd 1a98 143e 2404 7f3d
000001b0: e9db d53d 1ad5 5e3d 04f0 0c3f 772f c2be
000001c0: f304 623e c5df f93b 6d7d 8dbe d92d 0cbf
000001d0: a5a7 153e 9074 b63e 811b f83d e755 2dbd
000001e0: 4b4f e4be d265 133e 9431 593e 5ad1 bf3e
000001f0: 741a 44bf c858 cebd 0d41 9a3f 5bea 78bf
00000200: 8ce4 e43e cf19 963e 6798 7e3e 94bf 25bd
00000210: 8137 b9bd 4cbb 83bd b060 25bc d0fa 113e
00000220: e746 cabd 3fb8 343e eebc 933d 5989 bd39
00000230: bd72 afbe 8a33 713d f03f a2bb 687f 2e3e
00000240: 057c d13e d6b6 723e 7902 633e 247f 2cbb
00000250: cdd1 0c3f 2429 0c3f b431 3bbb 83ce d53e
00000260: 63e7 d43c 62f1 20bf d317 babe 2798 1abf
00000270: d4b4 1cbd 6465 d4be 47d9 8d3e c313 1abe
00000280: 6d75 253e 3e64 33bd 84cb 303e 5922 a4be
00000290: 5941 403d ceed af3e 6d21 f2be b1bd 81be
000002a0: 0cd9 973e 2333 93bd 2d42 963e 2ea5 933e
000002b0: fa16 a8be 8821 10bc b762 603d df21 2fbd
000002c0: 05cc 8d3e 7e1f f23a 6aa4 94be a45c f5be
000002d0: 9764 6f3e b220 09be 934a b7bd 7e6d 403e
000002e0: 4b42 e7bd f58c c1bd 7471 853c 74ce 033e
000002f0: 8966 963e 81d8 463d 261a 383d e1ae 7b3e
00000300: 6a0f 84be 79c2 753d c1b5 58bf cef9 053e
00000310: 0345 323e 0b6a f03e aa76 8f3e 6930 aebe
00000320: 87f3 a53d ca1f 6e3d d6ed 0dbe 9a49 95bf
00000330: 2cdb 193e 3009 b43e fe28 0b3e 943c 5c3b
00000340: 94c7 04be c8b4 653d 93a5 173f b4b3 523e
00000350: 3823 99be 7526 7bbe 9dd8 983d eda9 42bc
00000360: 0b54 413e 3e27 a0be 5bd6 02be 9892 9e3e
00000370: 7bc8 98be 9eb4 fdbd c233 253f a1ab 09bd
00000380: 2640 4c3d e305 153e e57b 1dbf 515c 18be
00000390: 92ad 85bd 968a 12be 377e 3ebc 1d2a 03bd
000003a0: e282 503d 99af 08be 0d4c f8bc ee32 61bb
000003b0: a0ff 243e 21e6 893c 833e fe3c 3802 303e
000003c0: 9485 3dbe 4746 cabd d284 243e ce8f c6bd
000003d0: b462 ad3d b71f 0d3e a86d b7be 6068 b83e
000003e0: c2d0 603e cc30 3fbe 8524 78be b79e de3e
000003f0: b9af d2be 3ec4 aa3e e387 883e 1871 ca3e
-0.09485022 -0.073907234 -0.119412854 0.035179175 0.06122881 1.6826385 -0.4275078 -0.48296645
-0.079551004 0.10529597 -0.013490503 -0.97809124 0.14816959 -0.18307461 0.5879007 0.21795973
-0.54080564 -0.34231696 0.29480702 0.08763668 0.024744129 -0.11424595 -0.14994235 -0.35634255
0.13756579 0.43049538 -0.37592882 0.57938105 -0.6210616 0.2698713 0.018951988 0.23747267
0.41464937 0.28767297 0.25592422 -0.035082728 0.060389552 0.12814818 -0.24582653 -0.07156975
-0.108491965 0.10548164 -0.11139498 0.044486012 -0.039326396 -0.11220401 0.033561323 0.09562162
-0.3665672 0.47883892 0.17609227 -0.24484207 -0.4309353 -0.57644194 -0.5128384 0.27224186
0.091373876 0.29132646 -0.47756413 0.73107594 -0.13170354 -0.5138401 0.15692689 0.1678495
0.2953268 0.15063328 -0.21583036 0.04838829 0.055623375 -0.38692677 -0.3231331 0.04927767
0.38047692 -0.16283146 -0.26767215 0.34401703 -0.46241078 0.01086006 -0.22315872 0.3021945
0.15872559 -0.24436602 -0.46159294 -0.030442191 0.34209803 0.009416478 0.14375536 0.039316762
0.14684412 0.075035 -0.018466525 0.02437904 -0.29968685 0.18390246 -0.08834487 -0.044024237
0.16453086 -0.15599827 -0.21306047 0.458627 -0.6052852 0.76382816 0.3506916 -0.099098474
-0.21453886 -0.107769415 0.14511147 0.06225981 0.10442335 0.05440245 0.55053735 -0.37926838
0.220722 0.0076255524 -0.27634755 -0.5475746 0.14614733 0.35635805 0.12114621 -0.04231825
-0.44591746 0.1439431 0.21210319 0.3746441 -0.76602864 -0.100755274 1.2051102 -0.972326
0.44705617 0.29316565 0.24862824 -0.040465906 -0.0904379 -0.064322084 -0.010093853 0.14255834
-0.09876805 0.1764841 0.0721377 0.0003615122 -0.34267226 0.058887042 -0.0049514696 0.17040789
0.40914932 0.23702559 0.22168912 -0.00263209 0.5500763 0.54750276 -0.002856356 0.41759118
0.02598924 -0.6286832 -0.363463 -0.60388416 -0.03825839 -0.41483605 0.27704832 -0.15046601
0.16158076 -0.04379677 0.17265135 -0.32057455 0.04693732 0.34361118 -0.47291127 -0.25340036
0.2965778 -0.07187488 0.29347363 0.2883696 -0.3283003 -0.008797057 0.05478164 -0.04275691
0.27694717 0.001847252 -0.29031688 -0.47922242 0.23378216 -0.13391379 -0.08949771 0.18791768
-0.11291941 -0.094507135 0.01628945 0.12871724 0.29375103 0.048546318 0.044946812 0.2457843
-0.2579301 0.059999917 -0.84652334 0.13083574 0.17409138 0.46955904 0.2802022 -0.3402131
0.0810309 0.058135785 -0.13860258 -1.1663086 0.15025014 0.3516326 0.13589856 0.0033605443
-0.12966758 0.05608061 0.5923702 0.20576364 -0.29909682 -0.24526389 0.07463191 -0.011881334
0.18879716 -0.3127994 -0.12777083 0.30971217 -0.29840454 -0.123879656 0.645321 -0.033610944
0.049865864 0.14553027 -0.61517173 -0.14878966 -0.065272465 -0.14310679 -0.011626772 -0.032022584
0.05090607 -0.13348235 -0.030309701 -0.0034362632 0.16113138 0.016833367 0.031035667 0.17188346
-0.18507987 -0.098766856 0.16066292 -0.09695397 0.08466092 0.1378163 -0.3582585 0.36017132
0.21954635 -0.18670958 -0.24232681 0.43480465 -0.4114969 0.33352846 0.26666173 0.3953941

actor.0.bias f4 [128]
00000000: dc85 d4bd 8570 02be d234 00bc 9445 06be
00000010: 2eea ac3c 94f9 d8bd 778c 9cbe 9429 63be
00000020: fd04 81be ff03 223e fd6d 18be 035c babb
00000030: 27cb 943d aeaf 85bd e3b8 c6bd 3e56 1e3d
00000040: d645 76be e751 16be 8fe4 9dbd 813b 59be
00000050: 6ca8 bd3c 2121 9a3c b1ae 5bbe 3c42 0abe
00000060: 1d7b 5abd ed04 673c 262d 94be ed9a 2dbe
00000070: 1c01 6bbe ea20 d33c 022b 2bbe dbec 1abd
00000080: 7914 2fbe 0ab6 f63c 4163 07be 9435 383c
00000090: 12ce 31be 97e6 0dbe 3c5b 8abe 3fc3 66be
000000a0: 2687 9cbd 5fb5 75bd 35af a5bd ea1e 96bd
000000b0: 5fc4 3fbe 1882 99be 0e43 6bbd 2ca7 61bd
000000c0: 7a35 333e 8aab 6abe 4934 82bc 4445 54be
000000d0: 4aef e6bd 8455 bbbd 459d 55be 61d2 0abc
000000e0: 1eff 4ebd 101d 8dbe f513 303d f971 e3bc
000000f0: 88e7 ffbd 2dac f5bd 6559 02be ad76 3b3d
00000100: 28c3 8dbe 6ec0 2ebe b57d e5bd ceb2 143e
00000110: 1206 89be a912 5d3e d9d8 94be be1e 9dbc
00000120: 94a6 81be 9caa 71bd 806d 7dbe cf40 b73d
00000130: 3193 0abe d683 1cbe e926 bcbe 322c 893c
00000140: 6bbf b3bd b916 23be 5d03 9cbd b430 1a3d
00000150: 98a9 0abe e6da 0abe 2a5d 85be 680e c5bd
00000160: 1c3d f63d 56e7 0e3d 7c35 6c3d cade be3d
00000170: 438f 57be 0a02 fe3c 982a f8bd 98fe 28be
00000180: ac9e 49bc 3361 103e 1c58 99be 40fa 8abe
00000190: 6792 e3bd 7e7c b33d 4de0 b1bc b6ef 35be
000001a0: 35d5 1a3d 188a e93c 7f2b 043e d333 16be
000001b0: 4c3a 183d 18e2 6abe 8330 28be 1273 b4be
000001c0: acab 85be 8592 153e 5b1f 813c a97f 8fbe
000001d0: 4c94 7ebd 27b8 9bbe 1788 0ebe 34a0 003e
000001e0: 7af8 8a3d 1c81 4ebc 5225 8bbd f09c d93d
000001f0: 3c01 a2be a910 173e 49c6 14bd 0ff4 34be
-0.10377094 -0.12738235 -0.007825093 -0.1311248 0.02110776 -0.10594478 -0.30575916 -0.2218383
-0.25199118 0.15821837 -0.14885707 -0.005687238 0.07265311 -0.06527649 -0.09703233 0.038656466
-0.24050078 -0.14679681 -0.0770961 -0.21214105 0.023151599 0.018814625 -0.21453358 -0.13501829
-0.053340066 0.0141002955 -0.28940696 -0.16953631 -0.22949642 0.02577253 -0.16715625 -0.03782354
-0.17097653 0.0301161 -0.13221456 0.011243243 -0.17363766 -0.13857494 -0.2702273 -0.22535418
-0.07642965 -0.059987422 -0.08090059 -0.07330115 -0.18727253 -0.29982066 -0.057436995 -0.05509107
0.17500868 -0.22917 -0.015894072 -0.20729548 -0.112761095 -0.0914717 -0.20860775 -0.00847301
-0.050536267 -0.27561235 0.042987783 -0.027764307 -0.12495333 -0.119957305 -0.12729414 0.045767475
-0.27687955 -0.17065594 -0.11205617 0.14521334 -0.26762444 0.2158915 -0.29071692 -0.019179698
-0.25322402 -0.059000596 -0.24748802 0.08947908 -0.13532712 -0.15284666 -0.36748436 0.016744707
-0.087767445 -0.15926637 -0.07617829 0.037644103 -0.13541257 -0.13560066 -0.2604764 -0.096218884
0.120233744 0.034888588 0.057668194 0.093198374 -0.21050744 0.031006832 -0.12117499 -0.1650337
-0.012305897 0.14099579 -0.29950035 -0.2714405 -0.111119084 0.087639794 -0.0217134 -0.17767224
0.037800986 0.028508231 0.12907217 -0.14668207 0.03716497 -0.2293781 -0.16424756 -0.35244042
-0.26107538 0.14606674 0.015762022 -0.28027084 -0.062153146 -0.30413935 -0.13919102 0.12561113
0.067856744 -0.012604024 -0.06794228 0.106256366 -0.31641567 0.14752449 -0.036321912 -0.17671226

actor.2.weight f4 [64, 128]
00000000: 60cb 7ebc 5ece 0b3e 3f9b 3cbe 9dab 0dbd
00000010: f8ff c4bd 7236 41be 6d84 1fbe f677 7a3c
00000020: d1ca c53b cf48 d63c 0e8e 01be 5457 323d
00000030: b4b5 3b3e 8c0a 033e ec12 04be dc5d 8cbc
00000040: 78fa d0bd e6c8 923e 9726 793d f4fe 5dbd
00000050: e9f1 013e f7ec 49be 54db 133e 296e 59be
00000060: 562d a03d 8ae3 0bbe cdbd a8bd b6ad 56bd
00000070: bcc0 de3d b061 a5bc e8cb f5bc 6167 643e
00000080: 785c e2bd 4007 13be 1c13 273e 7e46 74bd
00000090: 5e62 253c 8620 0d3e ddc2 a6bc 5406 663e
000000a0: 2b79 cc3c af11 f53c 5be2 c33d 841c 07be
000000b0: 4d86 de3d 80cf 273e dacb b1bd c918 fcbc
000000c0: 4cd7 963d e7da 813e d557 5f3d 9af9 a13e
000000d0: 7173 8d3d bb47 673e 64f0 c1bd 6346 5d3d
000000e0: c1be 0c3e 6e18 d8bc cf5c 9bbe 9429 89bc
000000f0: a5c4 fa3c 12ce fa3d 8d3f e8bb d404 f6bb
00000100: 2842 07be b856 6d3e 070a 23bd 7e09 e73c
00000110: 6867 b23e 20aa 313d 389f 99bc a7de 063e
00000120: 0f79 333e 5fce 9c3d 0041 5f3e b33a 1d3e
00000130: f11a 173e 5753 683e 6b4b a73d f86a bc3e
00000140: a39f 3cbe 5277 fe3d 5127 cebc 7f4a 9cbd
00000150: 87dc 343e ac63 c6bc d87b 863d 91ed 22bd
00000160: 422a 1cbe a71f 313d 693a 3abe df44 933d
00000170: 2bdd 0a3d 13bc b33e 33e3 f5bc 3bd0 cb3c
00000180: 80df b8bd 6947 113d 2b96 873e 79a1 813e
00000190: 6593 44be 60dc fe3d f9cb b6bd 8264 a7bd
000001a0: b0eb fe3d 1403 2c3d c78f c0be bf94 b3be
000001b0: 8b31 d93d 018f 85bd 331f d33c eff8 ff3d
000001c0: 4888 c13d 9f04 163d 1f56 d23d da17 e8bd
000001d0: 84dd 2d3d cb2e 203e 032a a33d faaa 7ebd
000001e0: 8ea0 8cbc d258 b8bd c82a 0cbe 5bed 903b
000001f0: ca1a ab3e 7e37 55be d0d4 b3bd 3861 77bd
00000200: 0107 b23e b718 25be b569 cf3d b080 ea3d
00000210: 4677 413e 76a9 72be 29af d0bb d3f7 20bd
00000220: c4c1 8d3d 5b6a 64be 81e9 01be 7285 16bc
00000230: 057b 863e e7f1 36be 101d 4dbe b17a 04bd
00000240: 46ec 283e bb29 ebbc 7e3c 21bd 775c ebbd
00000250: 0ec8 c23e 4e5a 7dbe e150 52be f750 4fbe
00000260: 7bfc a93e 054d 0c3d 0957 4fbe 8d01 a8bc
00000270: 93ce b23d 41de 5b3e de50 703d bf4c 0dbd
00000280: 8493 473c 9df6 36be 7916 fd3d 4018 43be
00000290: 10dc ce3e 096e d33d 9478 863d af6e e53d
000002a0: 4c3f 863d 4eac efbd d192 013e bbc2 0e3e
000002b0: fd12 43be a23d 2d3e 1202 47be f282 19be
000002c0: 8076 5ebe 1138 013f b8aa 173e 37f7 393e
000002d0: 0dde b63d 9f7f d7bd 1d93 4ebd 6eac e5bd
000002e0: ac37 353e 62d0 383e f6b9 803e 5b94 4d3d
000002f0: a92f 923e e678 9abe 23a1 463d 747a 58be
00000300: d4a2 5d3e 244e 9a3d de2e 8c3d 7e85 023e
00000310: 695e 91be 0c9b 47be bac6 0abe 2d67 623e
00000320: de97 9cbc 3c6a 153e b06e 1e3e 41b5 bf3d
00000330: 9011 2d3d a14a 3dbd 85b9 a43e 0a16 2a3d
00000340: 1940 573e 60c4 26be 2420 033d b954 873e
00000350: 4009 c8bd 1f76 bbbd 8182 0bbe 8bb4 bc3d
00000360: bb06 0fbe f0f7 dd3a 64fd 743e ccb0 3dbe
00000370: f525 02be 02fc 73be 48c1 6b3e 5afd e93d
00000380: 39a3 833e cb48 9e3d 54b2 5fbb 957e 9c3e
00000390: 0b64 4abd 8c43 f03d 0ffb fb3c 5f6d 163e
000003a0: 76f0 973d 367c 41be 150d 7bbe 6979 b8be
000003b0: 9a19 473e d18d 16bd e88d 503d d7c6 8d3d
000003c0: 2abc 813e e2cd 51bb 156c 563c a85f a2bd
000003d0: 5a53 a6be aee0 713e 819f af3c d75c ab3d
000003e0: 602b 04be 8e83 283e 8b31 c9bd b4a2 c63c
000003f0: bff6 803e f69e 73bd b94e b6be 1b64 f93d
-0.015551418 0.13652942 -0.18418597 -0.03458749 -0.09619135 -0.18868425 -0.1557786 0.01528739
0.0060361405 0.026157765 -0.12651846 0.043540314 0.18331033 0.12796992 -0.12897843 -0.0171346
-0.10204023 0.28668898 0.060827818 -0.05419822 0.12689938 -0.19719301 0.14439136 -0.21233429
0.07821147 -0.13661018 -0.082393266 -0.052411757 0.10876605 -0.020188183 -0.030004457 0.22305061
-0.11052793 -0.14358234 0.16315883 -0.05963754 0.010094253 0.13781938 -0.02035659 0.22463351
0.024960121 0.029915659 0.09564658 -0.13194472 0.108654596 0.16387749 -0.0868146 -0.030773537
0.07365283 0.25362322 0.054527123 0.31635743 0.06906784 0.22585957 -0.09469679 0.054022204
0.13744642 -0.026378836 -0.30344245 -0.016743459 0.030611346 0.12246336 -0.007087654 -0.0075079
-0.1320883 0.23177612 -0.039804485 0.028202768 0.34844518 0.043375134 -0.01875268 0.13170873
0.17526649 0.0765655 0.2180214 0.15354423 0.14756371 0.22688042 0.08168682 0.3680036
-0.18420272 0.12425102 -0.025165232 -0.076313965 0.1766225 -0.02421745 0.0656659 -0.039777342
-0.15250495 0.043243077 -0.18186344 0.071908705 0.03390233 0.35104427 -0.030015564 0.024879565
-0.09027004 0.035468493 0.26481757 0.25318506 -0.19196852 0.12444377 -0.089256234 -0.08173467
0.124472976 0.041995123 -0.37609693 -0.35074422 0.10605153 -0.065214165 0.025771713 0.12498652
0.09449822 0.0366255 0.102703325 -0.11332674 0.042447582 0.1564285 0.079669975 -0.062174775
-0.017166402 -0.09001316 -0.13688195 0.004422826 0.33418876 -0.2082195 -0.08780825 -0.06039545
0.3477097 -0.16122709 0.10127584 0.114503264 0.18893155 -0.23697457 -0.006368537 -0.039298844
0.069217235 -0.22306196 -0.12686731 -0.009187089 0.2626573 -0.17865716 -0.20030618 -0.03234357
0.16496381 -0.028706422 -0.03936433 -0.11492246 0.38043255 -0.2474148 -0.20538665 -0.2024573
0.3320044 0.03425314 -0.20248045 -0.020508552 0.08730807 0.21471502 0.05867087 -0.03449702
0.012181167 -0.17867513 0.12357802 -0.1905222 0.4040227 0.10323722 0.06565967 0.11202752
0.06555042 -0.117027864 0.12653662 0.13941471 -0.19050212 0.16918042 -0.19434384 -0.14991358
-0.21724892 0.50476176 0.14811218 0.18160711 0.089290716 -0.10522389 -0.050433267 -0.11214529
0.17697018 0.18048242 0.25141877 0.05019031 0.28551987 -0.30170363 0.048493516 -0.21140462
0.21644145 0.075344354 0.06844877 0.12746236 -0.28392342 -0.1949274 -0.1355237 0.22109671
-0.019115385 0.14591306 0.15471911 0.09360743 0.042253077 -0.04621375 0.3217279 0.041524924
0.21020545 -0.16285849 0.032013074 0.26431826 -0.09767389 -0.09153389 -0.13624002 0.09214123
-0.13967411 0.0016934853 0.23924786 -0.18524474 -0.12709792 -0.23826602 0.2302295 0.11425276
0.25710467 0.07728728 -0.0034133391 0.30565324 -0.049411815 0.117316335 0.030759363 0.1469016
0.07418911 -0.18895039 -0.24516709 -0.3603013 0.1944336 -0.03675634 0.050916582 0.06922691
0.2533887 -0.0032013585 0.013087292 -0.07928401 -0.32485467 0.23620865 0.021438362 0.08367317
-0.12907171 0.16456434 -0.09823903 0.024247505 0.25188252 -0.05947777 -0.35606936 0.12177297

actor.2.bias f4 [64]
00000000: e04d 5fbe 9352 c2bd 3c8d e4bd ef2f 94be
00000010: ea0f a5bd 0f86 abbe 9e8a 16be 4117 643d
00000020: 24b3 1bbe e663 56be 6606 12be f8fa 3cbe
00000030: e5d2 d4bc 7115 5fbd 7591 3e3d 8eb2 26be
00000040: 442b c03d 5c41 0fbe c91e c4be b874 5cbe
00000050: 382b 58be ce21 8abd 9e89 83bd d338 91be
00000060: 57fe d7bd 0f4b 123c 2e06 f6bd ddb1 48be
00000070: 0314 64bd 79b7 2cbe fce0 01be f978 66be
00000080: 60bc b3be a105 0dbd 9649 8fbe 1c1a 43be
00000090: 49d6 7e3d 611f 28bc 3258 5bbe 893a 35be
000000a0: ea31 67bc 25cd 0abe 8763 b2be 2a88 c8bd
000000b0: 4967 dbbe f1c9 e0bd e96c dcbd 0dba ba3c
000000c0: 3bf4 6ebe 7ee8 23be 8d07 49be b57e 00be
000000d0: 1f3d 05be 9c53 9dbd 17c8 94be f4a4 36be
000000e0: 9665 95bd 0e1a 62be d702 14be 5282 a3be
000000f0: 0f3d 9dbd 651a cdbd 6c4f 0cbe 7157 4fbd
-0.2180705 -0.09488406 -0.11159751 -0.2894282 -0.08059676 -0.33500716 -0.14701316 0.05568624
-0.15205055 -0.20936546 -0.14260253 -0.18455112 -0.025979469 -0.054463807 0.046525437 -0.1627905
0.09383252 -0.13989776 -0.38304737 -0.215289 -0.21110237 -0.06744729 -0.06422733 -0.28363666
-0.10546558 0.008929028 -0.120128974 -0.195991 -0.055683147 -0.16866864 -0.12683481 -0.22507085
-0.35104656 -0.034429196 -0.2798583 -0.19052929 0.062216077 -0.010261388 -0.21420363 -0.1769811
-0.0141110215 -0.13554819 -0.34841558 -0.09791596 -0.42852238 -0.10976017 -0.107629605 0.022793794
-0.23335354 -0.16006657 -0.19631787 -0.12548335 -0.13011597 -0.07681963 -0.29058906 -0.17836362
-0.072947666 -0.22080252 -0.14454208 -0.31935364 -0.07677662 -0.100148 -0.13702172 -0.0506205

actor.4.weight f4 [32, 64]
00000000: b527 883e 1cb3 7dba 0ceb 92bd 8ec4 ea3c
00000010: bd2a 07bc 4276 6c3d a145 bd3d d464 5b3e
00000020: 4f42 babc 3d41 5a3e aa37 8fbd 2eaa c4bd
00000030: c273 70bd fee0 583d 0ea1 6abd 1f83 5cbe
00000040: 7bde afbd 2079 f93c 87ca 763d 8fc5 ea3d
00000050: 52f3 57bd 422e 013d 479a 32be 98d6 25be
00000060: d327 743e 4723 763e a009 503e 4d65 15be
00000070: c60d 123e 48d6 193e 54a0 8fbe 8a8a c53a
00000080: 8754 e33d 7100 afbd 0d96 583e ca0c 3e3e
00000090: e425 fc3d f2e5 17bc 5149 9d3d 526b e63d
000000a0: 969c 5e3d e47a ebbc 1b4a b6bd b2ec ebbc
000000b0: cef3 a43d c9e6 36bd a64c 473d 3da6 6ebc
000000c0: df42 e33c 5438 a33d 2cb9 0abe c57c 57bc
000000d0: 846d 30bb 7cdf 4a3e 1f86 5e3d f57e 623e
000000e0: 7268 663e 8b10 c13c 514a a9bd 4cbf d63d
000000f0: 56e3 3f3d aa82 b7bd 51b0 d4be 50f2 1bbe
00000100: 8be5 923b 570e 8ebe 3a41 a23e 35ac ae3c
00000110: 8424 993c 65fd a03e 5a62 38bc 9d41 cd3d
00000120: 908c 903e 3c6e 37bd 6a5f 283c 5694 7b3b
00000130: 4c7e 2bbe 858a 1e3e d910 b2be 7040 83be
00000140: cfdf 1abe 2f6c 71be 6759 1f3e 5b3d 2d3e
00000150: 09d9 79be f23a 97be 3fc1 503e 8307 89be
00000160: 1df7 39be 6e52 9f3d 28b1 923c ecea e33c
00000170: fc56 fabc 7508 8fbd 017e 85bd 7d3a 1cbe
00000180: d526 8d3d a37a 51be 0ae1 8d3c dd17 f2be
00000190: a8cb 0ebe 04c5 2dbe fff2 52bd 59c5 2ebe
000001a0: 42ac 0ebe f41d fd3d d21e 343e 88ef b3bb
000001b0: 86d6 5ebe d086 ea3d fb4e 3cbd 2676 46be
000001c0: e837 b0bc 0ba2 3ebe 83d0 1cbe 1439 5e3e
000001d0: ea59 c63d df57 ba3d d4e7 54be e407 d83d
000001e0: c65f f6bc 8230 99bc 5c53 783e 6c9b 4fbd
000001f0: a4a1 88bd d127 54be f6d4 acbd f98b a13c
00000200: 156f 43bd 824d a33d 8a37 c93d 2cf1 a2bb
00000210: 2f01 c5bd 837e 4f3e 5521 61bd 2bbd 7cbe
00000220: e04e fd3d 6b76 25bd 3938 7bbe 1463 323d
00000230: 9f5d e53c 7f77 963d 2569 5b3e 7425 153c
00000240: bf2a 083d ddbf cc3c 38eb ffbd 590b 753d
00000250: b0c4 903e 00f9 2e3e f4f9 8fbc 598b 97be
00000260: 8ecd a7be b47c 50bd 8081 cbbd fc2f 52be
00000270: bd02 a5bc 4a4d 77be 7623 a4bd d465 ae3d
00000280: 3860 c43a c7e2 883c 2f62 023e 3341 12be
00000290: 5317 51be 378e 7c3d f3c9 f2bd 53a7 1e3e
000002a0: ae64 9abd 8e83 52be 4f9a 873d e43a 193e
000002b0: 2a35 a0bd 5e64 8d3d 5905 9b3e a210 833d
000002c0: 2889 61be 6aa6 2d3e e782 6cbe 4b63 233b
000002d0: 7be0 d3bc 454a f13c 3269 5ebe a795 a43d
000002e0: 41c8 34bd 42e2 89bd b3d6 203e 6c27 513e
000002f0: 4c94 fbbd 3eba 8b3d 364f 55be 1851 b7bc
00000300: 9dda 9d3d 158b 8e3d 2911 153e 3085 c63d
00000310: 4dd6 343e b0e9 013e acde f5bd 18d2 f5bd
00000320: eb12 e83c 15bc b5bb 6fb1 e2bd bd0f b83c
00000330: 80d5 64be 3fbb d33d f948 16be 7b7f b03c
00000340: 438f 45bd 62b3 b0bd e560 e03d aba9 f5bb
00000350: dd74 85be 3662 2cbd 4cdb fbbe 2f17 fa3d
00000360: 3f6c ee3d 9b85 0fbd 3896 b2bd 7c5f ff3d
00000370: 9741 fbbd 8c35 13be 1446 e93d 2633 f33d
00000380: 4a98 d8bd 90c6 7b3e f763 373e 7de1 7abe
00000390: 3096 83bd 1e6e 00bf f5e0 763e ddd8 aebd
000003a0: eb96 82bd 7bf6 f83c 575f 62be 790e 033d
000003b0: 4ba0 e6be fc61 e0bb 10ab 91bd e1c7 b4bd
000003c0: 38ad 00be a8d7 24be d236 52be c08c 87be
000003d0: 8d0e 32be 5f68 62be 07f4 d9bd 0c00 333d
000003e0: 8f9b 8b3d 3d07 563d 99ed 98bc d078 e13d
000003f0: c83d d4bd b32c 2fbe 6c52 2cbe 2506 143d
0.26592794 -0.00096778735 -0.07173738 0.028658178 -0.008249936 0.057729967 0.09241796 0.21425182
-0.022736697 0.21313949 -0.06993039 -0.09602772 -0.058704145 0.052948944 -0.0572825 -0.21534394
-0.08587357 0.030453265 0.06025174 0.114634626 -0.052722283 0.031538256 -0.17441665 -0.16195142
0.23843317 0.24036895 0.20316172 -0.14589424 0.14263067 0.15023148 -0.28052008 0.0015071195
0.11100107 -0.08545006 0.2115099 0.18559566 0.123119146 -0.009271132 0.076799996 0.112509385
0.05434855 -0.028745122 -0.08900853 -0.028799389 0.080543146 -0.044653688 0.048657082 -0.0145660015
0.027741848 0.07969728 -0.135472 -0.013152306 -0.0026920745 0.19811815 0.054327127 0.22118743
0.2250078 0.023567459 -0.08266128 0.10485706 0.046847664 -0.08960469 -0.4154077 -0.15229154
0.00448293 -0.27745315 0.3169039 0.02132235 0.01869417 0.31443325 -0.011253918 0.1002228
0.2823224 -0.044782862 0.010276655 0.0038387976 -0.16747397 0.15482529 -0.3477848 -0.256351
-0.15124439 -0.23576425 0.15561448 0.16917937 -0.24399199 -0.2953716 0.20386218 -0.26763543
-0.18160672 0.07779394 0.01790674 0.02782198 -0.030559056 -0.06984035 -0.06518174 -0.15256687
0.06892172 -0.20456938 0.017319221 -0.4728383 -0.13944876 -0.16969687 -0.05150127 -0.1706747
-0.13932899 0.12359229 0.17589882 -0.005491201 -0.21761522 0.11451495 -0.04597376 -0.19381008
-0.021511033 -0.18616502 -0.15313916 0.21701461 0.096851185 0.09098791 -0.2079156 0.1054838
-0.030074965 -0.018699888 0.24250549 -0.05068533 -0.066714555 -0.20718314 -0.084390566 0.019720064
-0.047713358 0.07973768 0.09825046 -0.0049725976 -0.096193664 0.20263104 -0.05496343 -0.24681537
0.1236856 -0.040396135 -0.24533166 0.04355152 0.027998744 0.07347011 0.21426828 0.009103168
0.03324389 0.024993831 -0.12496036 0.059825275 0.2827506 0.17087173 -0.017575242 -0.295985
-0.32774013 -0.050900176 -0.099368095 -0.20526117 -0.020142907 -0.24150577 -0.08014576 0.08515516
0.0014982289 0.016709698 0.12732767 -0.14282684 -0.20419054 0.061659064 -0.11854925 0.15493517
-0.075387344 -0.20557997 0.06621229 0.14963871 -0.0782264 0.06903909 0.30277517 0.06399657
-0.22024977 0.16958013 -0.2309681 0.002493101 -0.025863877 0.02945436 -0.21719816 0.080363564
-0.04413629 -0.067326084 0.15706901 0.20425195 -0.12284145 0.06822632 -0.20830998 -0.022377536
0.07707713 0.069601215 0.14557327 0.09693372 0.17659874 0.12686801 -0.12005362 -0.12002963
0.028329333 -0.0055461028 -0.11068999 0.022468442 -0.22347069 0.10338449 -0.14676274 0.021545162
-0.04823233 -0.086279646 0.10955981 -0.0074970326 -0.26065722 -0.04208585 -0.49190748 0.12211453
0.1164174 -0.035039525 -0.08720058 0.12469384 -0.1226837 -0.14375895 0.113903195 0.1187499
-0.10575922 0.24587464 0.17909227 -0.2450008 -0.0642513 -0.50168025 0.24109252 -0.08537457
-0.063764416 0.030390969 -0.22106682 0.031996224 -0.4504417 -0.006847618 -0.07112706 -0.088271864
-0.12566078 -0.16097891 -0.20528725 -0.2647457 -0.17388363 -0.22110127 -0.10642248 0.043701217
0.0681678 0.052252997 -0.018667983 0.11009371 -0.10363346 -0.17106895 -0.16828316 0.036138672

actor.4.bias f4 [32]
00000000: b45d 3abe 8679 74be 1796 95bd f1a9 bbbd
00000010: 1342 16be ba9f 9fbe a2d5 abbb fd29 08be
00000020: bd86 f0bd 4491 2abd c307 fabc 4509 003b
00000030: a490 7dbc 2839 30bd 62b3 0ebf dfa2 e2bd
00000040: 7b23 a6be 7d72 11be de84 c6bc 9bea a3be
00000050: 79e0 b5be fbe8 4cbe 5023 8bbe 4339 95bc
00000060: 88c6 9abd 66b0 cbbd 202d 0cbd dd62 59be
00000070: 8f63 ddbd d2ce edbd 1e88 8239 6809 dabc
-0.18199807 -0.23874483 -0.07304018 -0.09163273 -0.14673643 -0.3117655 -0.005243973 -0.13297267
-0.11744449 -0.041642442 -0.03052128 0.0019536775 -0.01547638 -0.04302326 -0.55742466 -0.110662214
-0.32448944 -0.1420383 -0.024233278 -0.32014927 -0.35522822 -0.2001075 -0.2717538 -0.018215781
-0.07557398 -0.09945755 -0.034222722 -0.2122912 -0.10810005 -0.116117135 0.00024896947 -0.026615813

actor.6.weight f4 [12, 32]
00000000: 9c11 413e e51a b13d 7549 23bc 98f2 a4bd
00000010: 76b2 31bc c4ce aabd 6341 b8bd 3d6d 0abc
00000020: 5857 29be ca13 76bd 1321 183e 075c 0dbd
00000030: a55b 243d 0576 cabd 9f0b 7dbb c3e3 fd3b
00000040: 0742 3c3e 2f4d 933c 42ca c4bd d6d5 423c
00000050: 3981 c93a 5d8f 023d 255f 7ebd 1c18 543d
00000060: 63e6 e2bd a175 863d d2ab 93bd 6ac2 a9bc
00000070: d439 813d 94f4 d13a 8ed9 98bc a54a f63d
00000080: e5eb 833c 51d5 46be d973 883c ad21 8a3e
00000090: 3680 493d 8b48 3f3d 6f0c 6f3d 6467 73be
000000a0: 70a1 56bd 72a9 153d 3ee4 123c 4ea0 2cbe
000000b0: 8247 78bd f1e0 10bd d883 193e 04ab 513c
000000c0: 2a4c 1fbe 6190 e4bc 55c2 193d 3465 16be
000000d0: 8f7b 503d d21d cf3d 9d37 9cbd 3557 a33b
000000e0: 75e9 cc3c 9d3c d63d 5f4f 8e3b 144a b33d
000000f0: 4584 3ebe b705 8c3e dfcf adbe 8d3d 803c
00000100: cf3b dfbd d761 8f3e 1265 df3d 7bab 91bd
00000110: 3085 c63d c2f1 153b 3f90 9ebd ae77 cd3c
00000120: 7b75 95bd 813f 403e 737c 7d3d 07db 883e
00000130: bb5c 0a3d 05ad f23c da01 f4bd 6492 e03d
00000140: 2153 e639 6de9 c8bd e625 663c 08ad 48bd
00000150: 265f 4b3d e35c b23d 533f e13d b6d6 a53d
00000160: d084 a03b 94a3 4c3c 0a12 08bd 49bc 323c
00000170: a01e 85be 43c9 b6bd 0f12 0fbe e66f 4fbd
00000180: 0b53 b93d b01d f83c 2a50 76bd a69d 533d
00000190: 31bd c63c e8e0 1dbc 1997 e23b a26c 3d3d
000001a0: 29c7 b2bd 3f03 a93d a179 6abd 056e cd3b
000001b0: 07e1 32bd e97f 8e3d 1f2a 1a3d ba54 533d
000001c0: bfc5 e63c ee2b 0a3e 382a 11bc ba17 053e
000001d0: ca0a c23d e199 fcbc 8016 6dbd d4c9 b8bb
000001e0: f6e2 6e3d 6fd0 35be 6146 ad3c a5e9 493c
000001f0: 4994 76bd e28c 13ba ec57 d138 242c c7bd
00000200: 9255 1f3c da11 2e3d b9b8 243c 62e0 433e
00000210: 990f bebb 1406 683d 24c3 723e 5fa5 21be
00000220: 6bf2 9cbd b0ef 39be 2823 7d3d eb5f d1bc
00000230: f19c c6bc 862d 863d 78c4 973e 2712 593e
00000240: 2f85 48bd d0b9 893c b13b babc 0ef6 65be
00000250: 7c25 1f3e de86 8a3c 2dcd d13d 3ce8 263e
00000260: b466 56bd c798 acbd fbf4 9a3d 5156 a53d
00000270: 51ed ae3d d550 643d 6f53 6bbc d2c1 ab3d
00000280: b613 28bd 3569 2c3e a2af 163d 4cdc 1d3d
00000290: 3197 8fbc 4f10 043e 068f 5b3d 7f20 53be
000002a0: 96f6 53bd 7a31 7cbd f9ba 74be f77c 4d3d
000002b0: 8fa9 d73d d182 1fbd ba6b f53d 6fb5 92be
000002c0: 3d29 1a3d 182d 02bd 2073 82bd 2c30 223e
000002d0: 1d3b 2c3d 103a 40bd fc19 c93c efe9 23bd
000002e0: c953 0d3e be04 513d f1ba d7bd 212d 103e
000002f0: a1d9 f5bc e398 7a3d bad9 07bc 2b00 13be
00000300: 3477 dc3c 32e3 f6bc f0dc 6f39 d736 0bbd
00000310: 2d27 313e 1499 a4bd 35e0 123d dd8a 3dbd
00000320: 255b 52bd 7efe 283d 10e5 15be 50fc 183e
00000330: 47b6 c93c aa8c 54bd 4392 08bc 794e 21bc
00000340: a15d f1bc 5ab9 d53a 38ca 23bb d7ce 2abd
00000350: 31c0 f5bd e9d5 8bbd e3d6 0dbe 48bc 2f3e
00000360: a851 a13c e30f 843d 8a1b fa3b 136d efbc
00000370: 71ea 743c c1b8 a3bd f86b 443d e239 c33d
00000380: 00b8 b3bd 6c56 fc3c c5c6 76ba e7ea 993e
00000390: c2fe 1fbd 1895 fdbd 2faa 953d 975f b73d
000003a0: 259d afbc f573 d5bd 31d3 d23d f7ec de3d
000003b0: a414 853d cb14 4abe 8db7 b83d ebdc a63c
000003c0: 35b6 543d 41c6 833c 9039 373d 78ba e0bd
000003d0: 480e 18bd 4911 b13d e304 c4bd b533 863d
000003e0: aa05 1ebd a22f 78be 3859 a3be 4986 1abd
000003f0: 7263 92bc 5c91 113d df46 3fbd 6409 5cbd
0.18854374 0.08647708 -0.009966244 -0.080540836 -0.010845771 -0.08340219 -0.089968465 -0.008448896
-0.16537225 -0.060077466 0.14856367 -0.034511592 0.04012646 -0.09885792 -0.0038611663 0.0077480986
0.18384562 0.01798114 -0.0960889 0.011891803 0.0015373594 0.031875003 -0.062102456 0.051780805
-0.11079099 0.06565405 -0.072105065 -0.020722587 0.06309858 0.0016018325 -0.018658426 0.12025956
0.016103694 -0.19417311 0.016656803 0.26978818 0.049194537 0.04670004 0.058361467 -0.23769909
-0.052400053 0.03653855 0.00896555 -0.16858026 -0.06061507 -0.03537077 0.149917 0.012797121
-0.15556398 -0.027900876 0.037538845 -0.14687043 0.050899085 0.1011311 -0.07627795 0.004984761
0.025013665 0.1046078 0.004342958 0.08754364 -0.18605144 0.2734811 -0.33947656 0.01565435
-0.109000795 0.28004333 0.109079495 -0.071127854 0.09693372 0.0022879695 -0.077423565 0.025081482
-0.07297798 0.18774225 0.061886262 0.26729605 0.03377984 0.029623518 -0.11914416 0.10965422
0.00043930954 -0.098101474 0.014047122 -0.04899314 0.049651287 0.08709123 0.10998406 0.080975935
0.004898645 0.012490172 -0.03322033 0.0109091485 -0.25999928 -0.089251064 -0.13971733 -0.050643824
0.09049042 0.030287594 -0.060135044 0.051664017 0.024260135 -0.009636141 0.006914985 0.04624618
-0.08729393 0.08252572 -0.0572449 0.006269219 -0.043671634 0.06957991 0.037637826 0.051594473
0.028170465 0.1349332 -0.008860163 0.12997332 0.09474714 -0.030835094 -0.057882786 -0.005639294
0.058321916 -0.17755292 0.021151723 0.012323772 -0.06020001 -0.0005628598 9.982273e-05 -0.09725216
0.009724991 0.042497493 0.010053807 0.19128564 -0.005800199 0.05664642 0.23707253 -0.1578574
-0.07663425 -0.1815784 0.061801106 -0.025558433 -0.024244757 0.06551652 0.2964208 0.21198331
-0.04895514 0.016812235 -0.022733541 -0.22457144 0.15541643 0.016910013 0.10244212 0.16299528
-0.05234404 -0.084275775 0.075662576 0.08073104 0.08541358 0.05574115 -0.014363154 0.08386578
-0.041034423 0.16837008 0.03678859 0.03854017 -0.017528148 0.12896846 0.053603195 -0.20617865
-0.051748835 -0.061570622 -0.2389945 0.050168004 0.105303876 -0.038943116 0.11983438 -0.28654048
0.037636984 -0.031781286 -0.063696146 0.15838689 0.042048562 -0.046930373 0.024548523 -0.04001802
0.13801493 0.051029913 -0.10533703 0.14079715 -0.030011 0.06118096 -0.008291656 -0.14355533
0.02691231 -0.030137632 0.00022875122 -0.033987846 0.173001 -0.0803701 0.03585835 -0.04627501
-0.051356453 0.041258328 -0.14638162 0.1494 0.02462305 -0.05189196 -0.008335653 -0.0098453695
-0.029463591 0.001630585 -0.0024992358 -0.041701164 -0.11999548 -0.068279095 -0.13851504 0.17161667
0.019692257 0.06448343 0.0076326774 -0.029226815 0.014948473 -0.079942234 0.04795453 0.09532525
-0.087753296 0.030802928 -0.0009413774 0.3006203 -0.039061315 -0.12381953 0.073078506 0.08953779
-0.021437237 -0.10422508 0.10294188 0.10885041 0.064980775 -0.19734494 0.090193845 0.020369014
0.05193158 0.016085746 0.04473263 -0.10973066 -0.037122995 0.08645875 -0.095712446 0.06552831
-0.03857962 -0.2423692 -0.31904006 -0.03772572 -0.017869685 0.035539016 -0.046698447 -0.053719893

actor.6.bias f4 [12]
00000000: 89d4 4ebe 5c99 813d 060e 303e ae83 40be
00000010: 643c 54be 6eed 63bd 3cd1 0d3e 340d 5c3e
00000020: a5e5 063e 0eeb d73d 7816 69be 243a d7bd
-0.20198263 0.06328079 0.1719285 -0.18800232 -0.20726162 -0.055646352 0.13849348 0.21489412
0.1317354 0.1054288 -0.22762477 -0.10509136

critic.0.weight f4 [128, 48]
00000000: a06d be3d 1a9f 453d 1cd0 6d3d 8c27 123d
00000010: 25f4 a9bc e656 94bd b78b 093f 6ecb e9be
00000020: 7085 89bd 4fde 06be 9b0c 8b3d 98e6 f53a
00000030: deea 3abe 4925 a73e 5ffb 243e 9cd2 963d
00000040: 2124 3f3e 1f34 853e cd23 19bd 5860 963d
00000050: ae93 833e 779d 803e e5bf 5bbc d17d b23d
00000060: d964 a63a 9685 803e 184d 21bc 79f5 bd3c
00000070: 7a1f 603e be0e 92be 80aa 2cbc af2f 8f3c
00000080: 5f81 6f3d e6ec dc3c b21b 353d 7527 4ebe
00000090: 6f39 413d be91 91bc 5f1f 053e 8367 62bd
000000a0: 7f71 663c 3477 3d3c 5884 56bd 92db 5e3d
000000b0: 28e2 7ebd 2091 44bd c780 793d b01a e03c
000000c0: db1c b7bc 8d00 063c 19fc bdbd e0fb 4abe
000000d0: b89b f9be 54fa e73d 4a1e 0dbe 9543 573f
000000e0: adb7 23bd 3245 273e 66f8 5cbe 85b5 50be
000000f0: ca06 a3be a8ed 0e3c 3554 8a3e ff63 a3bd
00000100: 454f 3e3e 24e5 ecbd e3b1 173d c1c4 b03c
00000110: c584 9fbc 465d 07be b429 1abe bccd d3bd
00000120: 21be 9bbe 1d32 97be d5b2 4bbd f7f1 6abe
00000130: f224 d9be ff0c 53be 1e3c ed3d ec14 a4be
00000140: b771 1f3e 6b60 e0bc 5d86 7e3d d5dd 983d
00000150: 86b1 823c 1498 7cbd bda0 d0bc 1382 933d
00000160: c914 60bc 59d7 eebc e381 e9bd a997 a6bd
00000170: c7fd 19bc 7bd5 a53c 9d16 e43c 8646 033c
00000180: 98b8 a3bd 04c9 cc3c 89e3 0bbe 081e ad3b
00000190: b3ae 6f3c 204c 413e 2d77 79be efe2 bdbe
000001a0: 5cf7 873d d2a4 5abe 6b3f 9c3d 1b79 303f
000001b0: a9af eb3d 8463 903c 7544 e5bd d730 5b3e
000001c0: 3fa5 143c da43 d33d 50a2 d0bd 7da4 91bd
000001d0: 9f5b ecbd 4313 1cbe dc15 933d 5637 263e
000001e0: ee96 093e cdce 33be 905a 8f3d c8e0 febd
000001f0: ccb8 423e bcbc 5ebc 206d debc 394a 3a3e
00000200: f1bd fe3d 6762 85bd 914a d039 9c17 96bd
00000210: ea5a c9bd 05e1 ca3c 391b 193c 2135 acbd
00000220: 3ace 6fbd b0d7 b9bc a053 bdbc 4fc5 473b
00000230: 7e75 a03c f3dd 3ebd d4d5 dcbc 4ab3 183d
00000240: 4c02 d63d c003 3fbe 5430 063e 1ef5 73bd
00000250: 0990 cdbc 47c8 e4be f982 8a3e fde9 86be
00000260: 9991 6a3d 6f50 73bd 7fef fb3d 46b8 133f
00000270: 966b f1bd 3a85 4f3d a809 503e b13d 8a3e
00000280: 2964 22be 483e 24bd f5a5 903e a282 dfbe
00000290: 4329 9ebe f10e 85bd 40bb 1cbe b515 903c
000002a0: 1743 cf3d e7fe 883d 5004 e2bd e31c 393e
000002b0: 3439 9cbd 73f4 c4bd f3fc 6cbd e368 45bd
000002c0: cc7b 8abb 79f2 efbc e096 9bbc 5e3b dd3d
000002d0: 5faf c1ba dfe9 04bd 05df fb3d 11c2 993c
000002e0: de89 883d 4986 d1bd e830 8f3c 4872 c33b
000002f0: f76e 43bc 74c2 0e3d 07ed 2b3d 57a3 983d
00000300: 45ce 1a3d 4174 3ebc 9554 47bd 4469 7dbd
00000310: 977b 453f 7553 50bd b044 923e 7928 1cbf
00000320: fc9e ad3d 09c1 43bc 2ee7 a2bc 4ab2 8cbf
00000330: b824 713c b431 a13e 7e8f 8cbd 20f3 4e3e
00000340: 26de a5bd 815f 883e 5470 923e 1a9a 5c3e
00000350: 344c 233e 973e b73d fe1d fc3d 1717 7cbe
00000360: ab71 0abe 3874 c9bd 1ff6 18b9 cdae 453e
00000370: 45fa a5bd 68f2 0bbd bef2 2cbd 704d 113c
00000380: 1b59 253d 6a38 75bd 65d9 52bc 3288 a6bd
00000390: e2f8 b3bd d755 0abe 493c 21bd 7a19 da3c
000003a0: 7ce1 c83c 812e c03d fcc1 afbd a663 683b
000003b0: 1cc5 803e b5df 02be 93e2 9abd d713 b33d
000003c0: bc40 b3bc 3467 08bd b4eb f03c 02fd de3e
000003d0: 0953 1dbe a6ae 82be 910e 8c3e 0cf4 a7be
000003e0: 63cd ccbd 67f2 7c3d 2a0f f73c 7ae0 413e
000003f0: bbb4 0ebe f937 923e 14e7 153e 7346 aebe
0.09298253 0.048247434 0.058059797 0.035682246 -0.0207463 -0.07243137 0.5372881 -0.45663017
-0.06714904 -0.13170741 0.06789514 0.0018760739 -0.18253657 0.32645634 0.16111515 0.07364389
0.18666126 0.26016328 -0.037387658 0.07342595 0.25698608 0.25120136 -0.01341245 0.08715404
0.001269485 0.25101918 -0.009845041 0.02318834 0.21887007 -0.28526872 -0.010538697 0.017478792
0.058472987 0.02696843 0.044215865 -0.20132239 0.047173914 -0.01776969 0.13000248 -0.055274498
0.0140651455 0.011564065 -0.052372307 0.054408617 -0.0622274 -0.047989964 0.060913827 0.027356476
-0.022352627 0.008178842 -0.092765994 -0.19822645 -0.48751616 0.11327043 -0.13781086 0.84087497
-0.03997009 0.1633499 -0.21579131 -0.20381744 -0.31841117 0.008723654 0.2701737 -0.07978057
0.18584926 -0.115671426 0.03703488 0.021578195 -0.01947249 -0.13219175 -0.15054971 -0.10341975
-0.30418494 -0.2953042 -0.049731094 -0.22943865 -0.42411 -0.20610426 0.11583732 -0.32047212
0.15570723 -0.027389726 0.062139858 0.07464186 0.01595379 -0.06166847 -0.025467271 0.07202544
-0.013676831 -0.02915542 -0.11401727 -0.08134396 -0.009398884 0.020243397 0.027842814 0.00801242
-0.07994193 0.024998195 -0.13661017 0.005283121 0.014629054 0.18876696 -0.24361868 -0.370872
0.06638977 -0.21351936 0.076292835 0.6893479 0.11508114 0.017625578 -0.11194698 0.2140535
0.009072601 0.10315676 -0.10187209 -0.07111452 -0.11540913 -0.15241723 0.07181904 0.16232046
0.13436481 -0.17559357 0.06999695 -0.12445217 0.19015807 -0.0135948025 -0.027151644 0.18192376
0.12438572 -0.065129094 0.00039728408 -0.07328722 -0.098317936 0.0247655 0.009344869 -0.08408571
-0.058546282 -0.022685856 -0.023111165 0.0030482595 0.019587275 -0.046598386 -0.02695743 0.03728036
0.10449657 -0.18653774 0.13104373 -0.059559934 -0.025093095 -0.4468405 0.2705305 -0.26350394
0.05726776 -0.05940288 0.1230154 0.57703054 -0.117880985 0.050664164 0.20316184 0.27000192
-0.1585852 -0.04009846 0.28251615 -0.43654352 -0.30890855 -0.064969905 -0.15305805 0.017588476
0.10120218 0.06689244 -0.11035979 0.18077426 -0.07628098 -0.096169375 -0.05785842 -0.04819573
-0.0042261835 -0.029290425 -0.018992841 0.10802339 -0.0014776996 -0.0324496 0.12298397 0.018769296
0.06666921 -0.10230691 0.017479375 0.005964551 -0.011928312 0.034853414 0.041974094 0.074530296
0.03779437 -0.011624397 -0.048664648 -0.061867967 0.7714171 -0.05086084 0.2856803 -0.60999256
0.084775895 -0.011947879 -0.019885626 -1.099191 0.014718227 0.31483233 -0.068633065 0.20209932
-0.08099012 0.26635364 0.28601325 0.2154316 0.15947038 0.08947485 0.12310408 -0.24618183
-0.13519923 -0.0983662 -0.00014587537 0.19304962 -0.08104376 -0.034166723 -0.042223684 0.00886856
0.04036818 -0.059868254 -0.012869214 -0.08131446 -0.08787705 -0.13509308 -0.039364133 0.026623476
0.024521582 0.0938387 -0.085819215 0.0035459786 0.25150383 -0.1278065 -0.07562747 0.087440185
-0.021881454 -0.033301547 0.029409267 0.43552405 -0.15363707 -0.2552387 0.27354863 -0.3280338
-0.10000112 0.06175461 0.030158598 0.18933287 -0.1393613 0.2855833 0.1463893 -0.34038123

critic.0.bias f4 [128]
00000000: f51c e0bd e601 2a3c fff5 b6bd bd1c d3bd
00000010: d0c8 9b3c 148b 70be 1929 8c3d 3c89 a53d
00000020: ad54 62be 0066 393e d37a 7dbd 7c1b 08bd
00000030: 8826 2dbe 2992 2c3e 6d7e ba3d 4841 41be
00000040: bc9c 213e c369 98bc 166d b1bd 7641 83be
00000050: 2303 973e 03fd b43d a9b8 1dbe 3496 98be
00000060: 7388 cfbd c6f8 8bbe 1bed 99be 36db 2dbe
00000070: aa22 8abe 52db 023e 67d8 193e 1989 873e
00000080: 8d8a 36bc 3129 c6bd 0410 b6be 004c 2a3e
00000090: c0db 913e 4a76 41bd 8c54 4f3d a8e5 96be
000000a0: 8af5 50be 3962 84bd c83f 2dbe 7f97 65be
000000b0: f2d5 6c3e f4e5 693d 3eb1 1bbe 850b 443e
000000c0: 6c65 b2be 61a3 0c3c 53f3 073e 5089 953d
000000d0: dd4c 8bbd ea94 07be fa06 d3bd 2a19 b4bd
000000e0: c244 9f3d ac72 41be 5edd b1be 70f0 4b3e
000000f0: 203d 073e f938 afbc 6f6f 97be 6d52 34be
00000100: a87d b23e 90f3 bb3d 266f a8be 5f45 a33d
00000110: 0aa5 903e 9206 a0bd 488c 53be baf8 d8bd
00000120: 2fa6 f03c c276 823e 9f0e 42be 72c0 6a3e
00000130: 6bd7 1fbd 79b3 673e 14f1 8fbe f927 a0bd
00000140: 9d10 5dbe 5eea 333e 788d 1abe 9401 893e
00000150: 36fa 1b3e b8d6 37bc b278 f0bc 6abc 09be
00000160: f3ef 1cbe 47bf 5f3b a7a5 173e f9a0 32be
00000170: 3401 383c 8d19 31bd dc49 6dbe cb51 2dbe
00000180: 569d 053e ff71 90be 25f4 933d d362 49be
00000190: b745 92be 7dd2 94be a0ce c7bd 7a01 f53d
000001a0: 2843 8d3e ac44 c73c 0036 a0be b2cb 3cbe
000001b0: 8821 823e c8af fb3c a8e5 6e3e f146 3b3e
000001c0: 9c1d 4bbe c518 c5be 7ce1 92be ee2a 403d
000001d0: 3857 bf3d 5c35 993d 957a 4bbe 0b09 debe
000001e0: 5b51 e4be 5aec 8abe f36e 1bbe 758e a1be
000001f0: 314d 2fbe 2441 743e fb57 b3bd b69a 43be
-0.10943023 0.010376429 -0.08933639 -0.10308216 0.019016653 -0.23490554 0.06843776 0.08082816
-0.22102614 0.18105316 -0.061884712 -0.033229336 -0.1690923 0.1685263 0.09106145 -0.18872559
0.15782446 -0.018605119 -0.086633846 -0.2563588 0.2949458 0.08837321 -0.15402474 -0.29802096
-0.101334475 -0.27338237 -0.3006371 -0.16978154 -0.26979572 0.12778977 0.15023957 0.26471785
-0.0111414315 -0.096758254 -0.35559094 0.16630554 0.28487968 -0.04723195 0.05061774 -0.2947209
-0.20406166 -0.06464047 -0.16918862 -0.22421072 0.23128489 0.057104066 -0.15204331 0.1914502
-0.34843004 0.008583874 0.13276415 0.07301581 -0.0680177 -0.132404 -0.10304065 -0.08793862
0.077767864 -0.188914 -0.34739202 0.19915938 0.13206911 -0.021389471 -0.29577205 -0.17609568
0.34861493 0.09177315 -0.328973 0.07972216 0.28250915 -0.07813753 -0.20658982 -0.10594316
0.029376118 0.2548123 -0.1895089 0.22924975 -0.039023798 0.22627057 -0.28113616 -0.07820124
-0.21588369 0.17569873 -0.15093029 0.26759017 0.15232167 -0.0112206265 -0.029354427 -0.1345078
-0.15325908 0.003414111 0.14809285 -0.17444219 0.011230756 -0.043237258 -0.23172706 -0.16925733
0.130483 -0.28211972 0.07224301 -0.19666605 -0.28568813 -0.2906684 -0.097562075 0.11963172
0.275903 0.024324737 -0.312912 -0.18437079 0.25416207 0.030723467 0.23329794 0.18288781
-0.19835514 -0.3849546 -0.28687656 0.04691594 0.093428075 0.074808806 -0.1987098 -0.43366274
-0.4459332 -0.27133447 -0.15179043 -0.31554 -0.1711929 0.23852974 -0.08757015 -0.19101986

critic.2.weight f4 [64, 128]
00000000: faae 6a3c 415c 993d 42f1 e7bd 31f8 213d
00000010: 413d 213e a50a b9bd 91e0 d53d e8b8 a6bd
00000020: 4e08 99bd 1a7f d9bd b4d9 6fbd a9ce 9fbd
00000030: d4d2 14be 9ef3 2f3c 50bd e43c 3f1d 813d
00000040: 1934 06be f5e8 4c3e c519 5ebd e668 12bc
00000050: 70e3 333b cdb4 813d 289c ce3d 8aa1 b7bd
00000060: 0db5 b93c aac7 9cbd e1f6 6bbc fe98 9dbe
00000070: fd41 14bd 104a d3bd d15d 263d 10c1 32bd
00000080: b67f 36bd 6d1e 6abd 8a3d a7bd 39b2 803d
00000090: e010 bcbc 6e6b 763c b2f1 d83c eb7c bbbc
000000a0: 472c 663d 49f5 483c 93ec d4bd 154f bbbd
000000b0: c303 d53d 03e6 133d 8db3 5f3c 5fd4 1ebd
000000c0: abba 6fbe ef0f 283d 9c1c 143d ba1f cdbd
000000d0: 5269 1bbd aa91 243d a972 863d d0b7 053d
000000e0: 35f0 093b 249e 453d 4839 2dbe 3fad ad3d
000000f0: 162d 32bd 9c62 91bc 91da 4fbd 4c66 013d
00000100: 891b 433b 424f c33d 1abd d0bd 70a4 16bd
00000110: 0604 dbbc 8634 613d 97ab 1abd 76d1 19bc
00000120: 3be5 803d 4446 013e 5f26 7bbd bfe9 6d3d
00000130: 31fc f3bd cf5d fa3c 70a4 a7bd 4f24 9cbc
00000140: 5eb0 ed3c 3bdc b6bd cd3d e6bb c564 febb
00000150: 61a9 a3bd 2662 c63d 2820 03be 9383 af3d
00000160: b02a 693d f328 563b 3301 af3d 86c7 c43c
00000170: 1b96 01be 9086 4bbd 8e51 1fbd 6af1 a1bd
00000180: 90a7 39bd 0497 37be a8eb 30bd 59ed 4bbd
00000190: f3db 223c 22e3 8b3a baa5 bfbd 51c9 c7bc
000001a0: b578 b33d c29d fbbc eccd b7bc 3cd6 ec3d
000001b0: eff8 1a3e c06c 473d eeaf 4e3d ef2d 453a
000001c0: 2fcc a13d 7d35 1bbe d9b9 8dbd c677 e7bb
000001d0: 762f 8aba cb20 c93c 0f62 b9bd 3bcb f5bd
000001e0: fa40 fcbb 8414 58bd 892b e53d e27f 65bd
000001f0: 21dd c2bd cd1e 8ebd a6f0 6dbd d1ee f4bd
00000200: 468e 32be a943 473e 0943 22be 6b94 cb3d
00000210: 2034 e3bd 12ab 70be 5ce2 41bd 6aae f63d
00000220: c9a8 1bba f8ea 1ebe a69d 9d3e bcf8 d03d
00000230: 207b 58bd c39f 6ebc 691d eebe e5d5 38bd
00000240: c48c c93d 9c6a 6cbd 8943 a53c 513e 8e3d
00000250: 4357 673e d5f0 84bd dcaf 07be 4dee 96bd
00000260: 9097 85be 9ff4 233e c608 bdbb 0a77 933d
00000270: 5595 12be 1e02 78be a211 923d 41e4 093e
00000280: beba 45be 6ca5 e3bb bd17 95bd 1806 8b3e
00000290: 998c 0d3e 84f4 5c3d 64cf 26be 45f6 66bd
000002a0: 3b4f 92bd 711a d2be db43 93bd 8184 9fbd
000002b0: e0cc 00bf d494 cfbe 25be 40be 98d5 85bc
000002c0: 2516 2a3e 70ca a8bd e2f9 6c3b 9d30 8f3d
000002d0: 4e9c 99bc 280f ed3d d7f1 183b 9a3b 75be
000002e0: a3d7 bfbd 539d 98be 9781 eabd a645 223a
000002f0: a830 acbd 94cf 123e fb6a 9fbe e309 10bd
00000300: 324c 60be ab5e 8a3d 000b 98be a81b 01bb
00000310: 39d5 dfbd 0cdf 433d 4737 bdbe 72e5 77bd
00000320: 6bf4 973e 9d28 e4bd 2c2b 933e 25c2 01be
00000330: 0901 d23d c1f9 e23d f179 9ebe 8ca8 e4bd
00000340: 24dc b6be 53bd 983e 6125 5f3d 4d03 2dbe
00000350: cfce a7bc 86e9 a03d 2b85 6e3e 4eb2 313d
00000360: 43c1 74be c964 ab3e 4230 d13d 50e6 2dbe
00000370: e881 aabd ab8c c83d c358 3dbc 77d2 0fbe
00000380: f928 b6bd fa1c c33d b3e7 a23d 1e0e 073c
00000390: aad9 05be 59f1 bfbc e834 8abd b9a7 51be
000003a0: 81f9 88bc dfc0 60be 2158 81bd b419 aebe
000003b0: c67a 38be b7b1 e13d 2622 d8bd 3e2c de3d
000003c0: 3e6b d9be 6eae 58be c020 99be e650 40bd
000003d0: 32c1 323e 474b 99bd bcc5 173d ce59 f8bc
000003e0: bf55 1cbe 94d9 92bd a39e c93d 6d11 d9bd
000003f0: d0e5 debd 4c0e 943d 1e8b e23c a4d1 443d
0.014323944 0.07488299 -0.11325313 0.039543334 0.15746023 -0.090352334 0.10443223 -0.08140737
-0.07472287 -0.10619946 -0.058557227 -0.07803089 -0.1453355 0.010739235 0.027922302 0.063044064
-0.13105811 0.20010741 -0.054223794 -0.008936143 0.0027448796 0.06333313 0.10088378 -0.08966358
0.02266934 -0.076552704 -0.014402122 -0.30780786 -0.036195744 -0.10316861 0.040616814 -0.04364115
-0.04455539 -0.057157923 -0.081660345 0.06283993 -0.022957265 0.015040262 0.026482437 -0.022886714
0.05619457 0.012265512 -0.103966855 -0.09145943 0.10401108 0.03610803 0.013653648 -0.03877675
-0.23411052 0.04103082 0.036160097 -0.10015817 -0.03794224 0.04017798 0.065648384 0.032646
0.0021047716 0.048246518 -0.16916382 0.0848031 -0.04350003 -0.017747216 -0.05074555 0.0315917
0.002977105 0.095366016 -0.10192318 -0.036777914 -0.026735317 0.05498173 -0.037761297 -0.009388318
0.06293722 0.1262446 -0.06131589 0.058084246 -0.11913336 0.03056231 -0.08185661 -0.019060282
0.029014762 -0.089287244 -0.00702641 -0.0077634775 -0.07991291 0.09686689 -0.12805235 0.08570018
0.056925476 0.0032678216 0.085451506 0.024020921 -0.12654917 -0.049688876 -0.038896136 -0.07907374
-0.045325816 -0.17928702 -0.04319349 -0.0497869 0.009940135 0.0010672549 -0.09357782 -0.024387987
0.087632574 -0.030714873 -0.022437058 0.115642995 0.15134023 0.048687696 0.05046075 0.0007521798
0.07900273 -0.15157123 -0.06920213 -0.0070638387 -0.0010542709 0.02455177 -0.09051906 -0.12001654
-0.0076981755 -0.05275394 0.11189944 -0.05603016 -0.09514833 -0.069394685 -0.05809083 -0.11959613
-0.17437086 0.19459404 -0.15845884 0.09940418 -0.110939264 -0.23502758 -0.047335014 0.120449856
-0.0005937932 -0.15519321 0.3078434 0.10203692 -0.052851796 -0.014564457 -0.46506813 -0.04512586
0.09841302 -0.057718858 0.020173805 0.0694548 0.22591881 -0.064912476 -0.13250679 -0.07369671
-0.26092196 0.16011284 -0.005768868 0.07200439 -0.14314778 -0.24219558 0.071322694 0.13465978
-0.19309518 -0.00694721 -0.07279918 0.27153087 0.13823165 0.053944126 -0.1629005 -0.056387205
-0.07144018 -0.41035798 -0.07190677 -0.07788945 -0.50312614 -0.40543234 -0.18822534 -0.016337201
0.1661001 -0.08241737 0.0036159684 0.06991694 -0.01875129 0.115751565 0.0023337507 -0.23948517
-0.09367301 -0.2980753 -0.114504986 0.0006190188 -0.08407718 0.14336997 -0.31136307 -0.03516568
-0.21904066 0.06756338 -0.29695892 -0.0019700322 -0.10929341 0.047820136 -0.36956236 -0.06052155
0.29678664 -0.11140559 0.28743875 -0.12671717 0.10254104 0.11082793 -0.3095241 -0.1116496
-0.3571483 0.29831943 0.054479007 -0.1689579 -0.020484356 0.07857041 0.23292987 0.043382935
-0.23901848 0.3347533 0.102142826 -0.16982388 -0.08325559 0.09792455 -0.011556807 -0.1404513
-0.08894534 0.09527011 0.07954349 0.008243112 -0.13071314 -0.023430513 -0.06748372 -0.20474137
-0.016720535 -0.21948574 -0.063156374 -0.34003985 -0.18015584 0.110202245 -0.10553388 0.10848282
-0.42464632 -0.2116029 -0.299078 -0.04695215 0.1745651 -0.07485061 0.03705381 -0.03031626
-0.15267085 -0.07170406 0.09844711 -0.10599027 -0.10883677 0.072292894 0.027654227 0.04805149

critic.2.bias f4 [64]
00000000: 1d86 8e3d 47ac 133e 1688 8bbd 4ae3 96bd
00000010: 3ae5 75be 3188 b13d 8b17 583e 434d 0abf
00000020: b084 aabd 359c 92be 566e 15be 8118 8d3d
00000030: bf4e 71bc 8fca a7be 8f47 cbbc 03d6 8a3d
00000040: f73a 68be 2655 383e aa72 e3bc b665 3ebe
00000050: 33b7 d3bd c1e5 c8bd b743 ea3b ed62 0abe
00000060: 8ff2 91bd b1a9 5d3b 9097 0cbe 154a 213e
00000070: 672d b0bd 02ff f23c 73f1 b4be 5148 873d
00000080: 07e4 b1bd d239 273d 6401 c73d 744d 23be
00000090: 67aa c7bd 85d7 16be 8816 6d3e b046 00bc
000000a0: 948f 49be 4da9 c43d 02d9 1ebe 69ae 533c
000000b0: 515f 953d 6a7b febd 2411 8dbe ed09 09bd
000000c0: d7de dfbd f9eb cb3d 51d5 663c 9de6 dc3d
000000d0: ad05 b4be d27a a2bd 0669 d6be af99 c0be
000000e0: b7e5 81bc dd4a 91be 8081 8ebe 15bc 1cbe
000000f0: 03f0 83be 20a2 c2bd 8463 cebd 8806 d73d
0.06959174 0.14421187 -0.06813066 -0.07367571 -0.24013224 0.086685546 0.21102731 -0.5402414
-0.083260894 -0.28634802 -0.14592871 0.068894394 -0.014728247 -0.32771727 -0.024814395 0.06779101
-0.22678743 0.18001232 -0.027764637 -0.18593487 -0.10337677 -0.09809447 0.0071491855 -0.135143
-0.071263425 0.0033823068 -0.13729692 0.15750916 -0.0860241 0.029662613 -0.3534046 0.0660559
-0.08686071 0.040826626 0.09717062 -0.15947515 -0.097492985 -0.14730652 0.23153126 -0.007829353
-0.19683677 0.09602604 -0.1551247 0.012920001 0.07293571 -0.12425883 -0.2755214 -0.03345673
-0.10931175 0.099571176 0.0140889445 0.107861735 -0.3516058 -0.07933582 -0.41877002 -0.3761725
-0.015856607 -0.2837743 -0.27833176 -0.15306123 -0.25769052 -0.09503579 -0.10077575 0.104992926
